{"format": "layers-model", "generatedBy": "keras v3.10.0", "convertedBy": "TensorFlow.js Converter v4.22.0", "modelTopology": {"keras_version": "3.10.0", "backend": "tensorflow", "model_config": {"class_name": "Functional", "config": {"name": "simplified_embedding_network", "trainable": true, "layers": [{"class_name": "InputLayer", "config": {"batch_shape": [null, 1044, 1], "dtype": "float32", "sparse": false, "ragged": false, "name": "input_layer_3"}, "name": "input_layer_3", "inbound_nodes": []}, {"class_name": "Lambda", "config": {"name": "signal_split_lambda", "trainable": true, "dtype": {"module": "keras", "class_name": "DTypePolicy", "config": {"name": "float32"}, "registered_name": null}, "function": {"class_name": "__lambda__", "config": {"code": "4wEAAAAAAAAAAAAAAAUAAAATAAAA8yAAAACVAZcAfABkAGQAhQJkAIkBhQJkAGQAhQJmAxkAAABT\nAKkBTqkAqQLaAXjaDXNpZ25hbF9sZW5ndGhzAgAAACCA+iAvdG1wL2lweXRob24taW5wdXQtMTA0\nODgzNzAyOS5wedoIPGxhbWJkYT76NGJ1aWxkX3NpbXBsaWZpZWRfZW1iZWRkaW5nX25ldHdvcmsu\nPGxvY2Fscz4uPGxhbWJkYT4jAAAAcxUAAAD4gACocbIRsE6wXbBOwkHQMUXSL0bzAAAAAA==\n", "defaults": null, "closure": [1024]}}, "arguments": {}}, "name": "signal_split_lambda", "inbound_nodes": [{"args": [{"class_name": "__keras_tensor__", "config": {"shape": [null, 1044, 1], "dtype": "float32", "keras_history": ["input_layer_3", 0, 0]}}], "kwargs": {"mask": null}}]}, {"class_name": "Conv1D", "config": {"name": "conv1d_36", "trainable": true, "dtype": {"module": "keras", "class_name": "DTypePolicy", "config": {"name": "float32"}, "registered_name": null}, "filters": 64, "kernel_size": [7], "strides": [1], "padding": "same", "data_format": "channels_last", "dilation_rate": [1], "groups": 1, "activation": "linear", "use_bias": true, "kernel_initializer": {"module": "keras.initializers", "class_name": "GlorotUniform", "config": {"seed": null}, "registered_name": null}, "bias_initializer": {"module": "keras.initializers", "class_name": "Zeros", "config": {}, "registered_name": null}, "kernel_regularizer": null, "bias_regularizer": null, "activity_regularizer": null, "kernel_constraint": null, "bias_constraint": null}, "name": "conv1d_36", "inbound_nodes": [{"args": [{"class_name": "__keras_tensor__", "config": {"shape": [null, 1024, 1], "dtype": "float32", "keras_history": ["signal_split_lambda", 0, 0]}}], "kwargs": {}}]}, {"class_name": "BatchNormalization", "config": {"name": "batch_normalization_24", "trainable": true, "dtype": {"module": "keras", "class_name": "DTypePolicy", "config": {"name": "float32"}, "registered_name": null}, "axis": -1, "momentum": 0.99, "epsilon": 0.001, "center": true, "scale": true, "beta_initializer": {"module": "keras.initializers", "class_name": "Zeros", "config": {}, "registered_name": null}, "gamma_initializer": {"module": "keras.initializers", "class_name": "Ones", "config": {}, "registered_name": null}, "moving_mean_initializer": {"module": "keras.initializers", "class_name": "Zeros", "config": {}, "registered_name": null}, "moving_variance_initializer": {"module": "keras.initializers", "class_name": "Ones", "config": {}, "registered_name": null}, "beta_regularizer": null, "gamma_regularizer": null, "beta_constraint": null, "gamma_constraint": null, "synchronized": false}, "name": "batch_normalization_24", "inbound_nodes": [{"args": [{"class_name": "__keras_tensor__", "config": {"shape": [null, 1024, 64], "dtype": "float32", "keras_history": ["conv1d_36", 0, 0]}}], "kwargs": {"mask": null}}]}, {"class_name": "ReLU", "config": {"name": "re_lu_24", "trainable": true, "dtype": {"module": "keras", "class_name": "DTypePolicy", "config": {"name": "float32"}, "registered_name": null}, "max_value": null, "negative_slope": 0.0, "threshold": 0.0}, "name": "re_lu_24", "inbound_nodes": [{"args": [{"class_name": "__keras_tensor__", "config": {"shape": [null, 1024, 64], "dtype": "float32", "keras_history": ["batch_normalization_24", 0, 0]}}], "kwargs": {}}]}, {"class_name": "Conv1D", "config": {"name": "conv1d_37", "trainable": true, "dtype": {"module": "keras", "class_name": "DTypePolicy", "config": {"name": "float32"}, "registered_name": null}, "filters": 64, "kernel_size": [7], "strides": [1], "padding": "same", "data_format": "channels_last", "dilation_rate": [1], "groups": 1, "activation": "linear", "use_bias": true, "kernel_initializer": {"module": "keras.initializers", "class_name": "GlorotUniform", "config": {"seed": null}, "registered_name": null}, "bias_initializer": {"module": "keras.initializers", "class_name": "Zeros", "config": {}, "registered_name": null}, "kernel_regularizer": null, "bias_regularizer": null, "activity_regularizer": null, "kernel_constraint": null, "bias_constraint": null}, "name": "conv1d_37", "inbound_nodes": [{"args": [{"class_name": "__keras_tensor__", "config": {"shape": [null, 1024, 64], "dtype": "float32", "keras_history": ["re_lu_24", 0, 0]}}], "kwargs": {}}]}, {"class_name": "BatchNormalization", "config": {"name": "batch_normalization_25", "trainable": true, "dtype": {"module": "keras", "class_name": "DTypePolicy", "config": {"name": "float32"}, "registered_name": null}, "axis": -1, "momentum": 0.99, "epsilon": 0.001, "center": true, "scale": true, "beta_initializer": {"module": "keras.initializers", "class_name": "Zeros", "config": {}, "registered_name": null}, "gamma_initializer": {"module": "keras.initializers", "class_name": "Ones", "config": {}, "registered_name": null}, "moving_mean_initializer": {"module": "keras.initializers", "class_name": "Zeros", "config": {}, "registered_name": null}, "moving_variance_initializer": {"module": "keras.initializers", "class_name": "Ones", "config": {}, "registered_name": null}, "beta_regularizer": null, "gamma_regularizer": null, "beta_constraint": null, "gamma_constraint": null, "synchronized": false}, "name": "batch_normalization_25", "inbound_nodes": [{"args": [{"class_name": "__keras_tensor__", "config": {"shape": [null, 1024, 64], "dtype": "float32", "keras_history": ["conv1d_37", 0, 0]}}], "kwargs": {"mask": null}}]}, {"class_name": "GlobalAveragePooling1D", "config": {"name": "global_average_pooling1d_15", "trainable": true, "dtype": {"module": "keras", "class_name": "DTypePolicy", "config": {"name": "float32"}, "registered_name": null}, "data_format": "channels_last", "keepdims": false}, "name": "global_average_pooling1d_15", "inbound_nodes": [{"args": [{"class_name": "__keras_tensor__", "config": {"shape": [null, 1024, 64], "dtype": "float32", "keras_history": ["batch_normalization_25", 0, 0]}}], "kwargs": {"mask": null}}]}, {"class_name": "Dense", "config": {"name": "dense_33", "trainable": true, "dtype": {"module": "keras", "class_name": "DTypePolicy", "config": {"name": "float32"}, "registered_name": null}, "units": 4, "activation": "relu", "use_bias": true, "kernel_initializer": {"module": "keras.initializers", "class_name": "GlorotUniform", "config": {"seed": null}, "registered_name": null}, "bias_initializer": {"module": "keras.initializers", "class_name": "Zeros", "config": {}, "registered_name": null}, "kernel_regularizer": null, "bias_regularizer": null, "kernel_constraint": null, "bias_constraint": null}, "name": "dense_33", "inbound_nodes": [{"args": [{"class_name": "__keras_tensor__", "config": {"shape": [null, 64], "dtype": "float32", "keras_history": ["global_average_pooling1d_15", 0, 0]}}], "kwargs": {}}]}, {"class_name": "Dense", "config": {"name": "dense_34", "trainable": true, "dtype": {"module": "keras", "class_name": "DTypePolicy", "config": {"name": "float32"}, "registered_name": null}, "units": 64, "activation": "sigmoid", "use_bias": true, "kernel_initializer": {"module": "keras.initializers", "class_name": "GlorotUniform", "config": {"seed": null}, "registered_name": null}, "bias_initializer": {"module": "keras.initializers", "class_name": "Zeros", "config": {}, "registered_name": null}, "kernel_regularizer": null, "bias_regularizer": null, "kernel_constraint": null, "bias_constraint": null}, "name": "dense_34", "inbound_nodes": [{"args": [{"class_name": "__keras_tensor__", "config": {"shape": [null, 4], "dtype": "float32", "keras_history": ["dense_33", 0, 0]}}], "kwargs": {}}]}, {"class_name": "Reshape", "config": {"name": "reshape_12", "trainable": true, "dtype": {"module": "keras", "class_name": "DTypePolicy", "config": {"name": "float32"}, "registered_name": null}, "target_shape": [1, 64]}, "name": "reshape_12", "inbound_nodes": [{"args": [{"class_name": "__keras_tensor__", "config": {"shape": [null, 64], "dtype": "float32", "keras_history": ["dense_34", 0, 0]}}], "kwargs": {}}]}, {"class_name": "Multiply", "config": {"name": "multiply_12", "trainable": true, "dtype": {"module": "keras", "class_name": "DTypePolicy", "config": {"name": "float32"}, "registered_name": null}}, "name": "multiply_12", "inbound_nodes": [{"args": [[{"class_name": "__keras_tensor__", "config": {"shape": [null, 1024, 64], "dtype": "float32", "keras_history": ["batch_normalization_25", 0, 0]}}, {"class_name": "__keras_tensor__", "config": {"shape": [null, 1, 64], "dtype": "float32", "keras_history": ["reshape_12", 0, 0]}}]], "kwargs": {}}]}, {"class_name": "Conv1D", "config": {"name": "conv1d_38", "trainable": true, "dtype": {"module": "keras", "class_name": "DTypePolicy", "config": {"name": "float32"}, "registered_name": null}, "filters": 64, "kernel_size": [1], "strides": [1], "padding": "same", "data_format": "channels_last", "dilation_rate": [1], "groups": 1, "activation": "linear", "use_bias": true, "kernel_initializer": {"module": "keras.initializers", "class_name": "GlorotUniform", "config": {"seed": null}, "registered_name": null}, "bias_initializer": {"module": "keras.initializers", "class_name": "Zeros", "config": {}, "registered_name": null}, "kernel_regularizer": null, "bias_regularizer": null, "activity_regularizer": null, "kernel_constraint": null, "bias_constraint": null}, "name": "conv1d_38", "inbound_nodes": [{"args": [{"class_name": "__keras_tensor__", "config": {"shape": [null, 1024, 1], "dtype": "float32", "keras_history": ["signal_split_lambda", 0, 0]}}], "kwargs": {}}]}, {"class_name": "Add", "config": {"name": "add_12", "trainable": true, "dtype": {"module": "keras", "class_name": "DTypePolicy", "config": {"name": "float32"}, "registered_name": null}}, "name": "add_12", "inbound_nodes": [{"args": [[{"class_name": "__keras_tensor__", "config": {"shape": [null, 1024, 64], "dtype": "float32", "keras_history": ["multiply_12", 0, 0]}}, {"class_name": "__keras_tensor__", "config": {"shape": [null, 1024, 64], "dtype": "float32", "keras_history": ["conv1d_38", 0, 0]}}]], "kwargs": {}}]}, {"class_name": "ReLU", "config": {"name": "re_lu_25", "trainable": true, "dtype": {"module": "keras", "class_name": "DTypePolicy", "config": {"name": "float32"}, "registered_name": null}, "max_value": null, "negative_slope": 0.0, "threshold": 0.0}, "name": "re_lu_25", "inbound_nodes": [{"args": [{"class_name": "__keras_tensor__", "config": {"shape": [null, 1024, 64], "dtype": "float32", "keras_history": ["add_12", 0, 0]}}], "kwargs": {}}]}, {"class_name": "MaxPooling1D", "config": {"name": "max_pooling1d_12", "trainable": true, "dtype": {"module": "keras", "class_name": "DTypePolicy", "config": {"name": "float32"}, "registered_name": null}, "pool_size": [2], "padding": "valid", "strides": [2], "data_format": "channels_last"}, "name": "max_pooling1d_12", "inbound_nodes": [{"args": [{"class_name": "__keras_tensor__", "config": {"shape": [null, 1024, 64], "dtype": "float32", "keras_history": ["re_lu_25", 0, 0]}}], "kwargs": {}}]}, {"class_name": "Conv1D", "config": {"name": "conv1d_39", "trainable": true, "dtype": {"module": "keras", "class_name": "DTypePolicy", "config": {"name": "float32"}, "registered_name": null}, "filters": 128, "kernel_size": [7], "strides": [1], "padding": "same", "data_format": "channels_last", "dilation_rate": [1], "groups": 1, "activation": "linear", "use_bias": true, "kernel_initializer": {"module": "keras.initializers", "class_name": "GlorotUniform", "config": {"seed": null}, "registered_name": null}, "bias_initializer": {"module": "keras.initializers", "class_name": "Zeros", "config": {}, "registered_name": null}, "kernel_regularizer": null, "bias_regularizer": null, "activity_regularizer": null, "kernel_constraint": null, "bias_constraint": null}, "name": "conv1d_39", "inbound_nodes": [{"args": [{"class_name": "__keras_tensor__", "config": {"shape": [null, 512, 64], "dtype": "float32", "keras_history": ["max_pooling1d_12", 0, 0]}}], "kwargs": {}}]}, {"class_name": "BatchNormalization", "config": {"name": "batch_normalization_26", "trainable": true, "dtype": {"module": "keras", "class_name": "DTypePolicy", "config": {"name": "float32"}, "registered_name": null}, "axis": -1, "momentum": 0.99, "epsilon": 0.001, "center": true, "scale": true, "beta_initializer": {"module": "keras.initializers", "class_name": "Zeros", "config": {}, "registered_name": null}, "gamma_initializer": {"module": "keras.initializers", "class_name": "Ones", "config": {}, "registered_name": null}, "moving_mean_initializer": {"module": "keras.initializers", "class_name": "Zeros", "config": {}, "registered_name": null}, "moving_variance_initializer": {"module": "keras.initializers", "class_name": "Ones", "config": {}, "registered_name": null}, "beta_regularizer": null, "gamma_regularizer": null, "beta_constraint": null, "gamma_constraint": null, "synchronized": false}, "name": "batch_normalization_26", "inbound_nodes": [{"args": [{"class_name": "__keras_tensor__", "config": {"shape": [null, 512, 128], "dtype": "float32", "keras_history": ["conv1d_39", 0, 0]}}], "kwargs": {"mask": null}}]}, {"class_name": "ReLU", "config": {"name": "re_lu_26", "trainable": true, "dtype": {"module": "keras", "class_name": "DTypePolicy", "config": {"name": "float32"}, "registered_name": null}, "max_value": null, "negative_slope": 0.0, "threshold": 0.0}, "name": "re_lu_26", "inbound_nodes": [{"args": [{"class_name": "__keras_tensor__", "config": {"shape": [null, 512, 128], "dtype": "float32", "keras_history": ["batch_normalization_26", 0, 0]}}], "kwargs": {}}]}, {"class_name": "Conv1D", "config": {"name": "conv1d_40", "trainable": true, "dtype": {"module": "keras", "class_name": "DTypePolicy", "config": {"name": "float32"}, "registered_name": null}, "filters": 128, "kernel_size": [7], "strides": [1], "padding": "same", "data_format": "channels_last", "dilation_rate": [1], "groups": 1, "activation": "linear", "use_bias": true, "kernel_initializer": {"module": "keras.initializers", "class_name": "GlorotUniform", "config": {"seed": null}, "registered_name": null}, "bias_initializer": {"module": "keras.initializers", "class_name": "Zeros", "config": {}, "registered_name": null}, "kernel_regularizer": null, "bias_regularizer": null, "activity_regularizer": null, "kernel_constraint": null, "bias_constraint": null}, "name": "conv1d_40", "inbound_nodes": [{"args": [{"class_name": "__keras_tensor__", "config": {"shape": [null, 512, 128], "dtype": "float32", "keras_history": ["re_lu_26", 0, 0]}}], "kwargs": {}}]}, {"class_name": "BatchNormalization", "config": {"name": "batch_normalization_27", "trainable": true, "dtype": {"module": "keras", "class_name": "DTypePolicy", "config": {"name": "float32"}, "registered_name": null}, "axis": -1, "momentum": 0.99, "epsilon": 0.001, "center": true, "scale": true, "beta_initializer": {"module": "keras.initializers", "class_name": "Zeros", "config": {}, "registered_name": null}, "gamma_initializer": {"module": "keras.initializers", "class_name": "Ones", "config": {}, "registered_name": null}, "moving_mean_initializer": {"module": "keras.initializers", "class_name": "Zeros", "config": {}, "registered_name": null}, "moving_variance_initializer": {"module": "keras.initializers", "class_name": "Ones", "config": {}, "registered_name": null}, "beta_regularizer": null, "gamma_regularizer": null, "beta_constraint": null, "gamma_constraint": null, "synchronized": false}, "name": "batch_normalization_27", "inbound_nodes": [{"args": [{"class_name": "__keras_tensor__", "config": {"shape": [null, 512, 128], "dtype": "float32", "keras_history": ["conv1d_40", 0, 0]}}], "kwargs": {"mask": null}}]}, {"class_name": "GlobalAveragePooling1D", "config": {"name": "global_average_pooling1d_16", "trainable": true, "dtype": {"module": "keras", "class_name": "DTypePolicy", "config": {"name": "float32"}, "registered_name": null}, "data_format": "channels_last", "keepdims": false}, "name": "global_average_pooling1d_16", "inbound_nodes": [{"args": [{"class_name": "__keras_tensor__", "config": {"shape": [null, 512, 128], "dtype": "float32", "keras_history": ["batch_normalization_27", 0, 0]}}], "kwargs": {"mask": null}}]}, {"class_name": "Dense", "config": {"name": "dense_35", "trainable": true, "dtype": {"module": "keras", "class_name": "DTypePolicy", "config": {"name": "float32"}, "registered_name": null}, "units": 8, "activation": "relu", "use_bias": true, "kernel_initializer": {"module": "keras.initializers", "class_name": "GlorotUniform", "config": {"seed": null}, "registered_name": null}, "bias_initializer": {"module": "keras.initializers", "class_name": "Zeros", "config": {}, "registered_name": null}, "kernel_regularizer": null, "bias_regularizer": null, "kernel_constraint": null, "bias_constraint": null}, "name": "dense_35", "inbound_nodes": [{"args": [{"class_name": "__keras_tensor__", "config": {"shape": [null, 128], "dtype": "float32", "keras_history": ["global_average_pooling1d_16", 0, 0]}}], "kwargs": {}}]}, {"class_name": "Dense", "config": {"name": "dense_36", "trainable": true, "dtype": {"module": "keras", "class_name": "DTypePolicy", "config": {"name": "float32"}, "registered_name": null}, "units": 128, "activation": "sigmoid", "use_bias": true, "kernel_initializer": {"module": "keras.initializers", "class_name": "GlorotUniform", "config": {"seed": null}, "registered_name": null}, "bias_initializer": {"module": "keras.initializers", "class_name": "Zeros", "config": {}, "registered_name": null}, "kernel_regularizer": null, "bias_regularizer": null, "kernel_constraint": null, "bias_constraint": null}, "name": "dense_36", "inbound_nodes": [{"args": [{"class_name": "__keras_tensor__", "config": {"shape": [null, 8], "dtype": "float32", "keras_history": ["dense_35", 0, 0]}}], "kwargs": {}}]}, {"class_name": "Reshape", "config": {"name": "reshape_13", "trainable": true, "dtype": {"module": "keras", "class_name": "DTypePolicy", "config": {"name": "float32"}, "registered_name": null}, "target_shape": [1, 128]}, "name": "reshape_13", "inbound_nodes": [{"args": [{"class_name": "__keras_tensor__", "config": {"shape": [null, 128], "dtype": "float32", "keras_history": ["dense_36", 0, 0]}}], "kwargs": {}}]}, {"class_name": "Multiply", "config": {"name": "multiply_13", "trainable": true, "dtype": {"module": "keras", "class_name": "DTypePolicy", "config": {"name": "float32"}, "registered_name": null}}, "name": "multiply_13", "inbound_nodes": [{"args": [[{"class_name": "__keras_tensor__", "config": {"shape": [null, 512, 128], "dtype": "float32", "keras_history": ["batch_normalization_27", 0, 0]}}, {"class_name": "__keras_tensor__", "config": {"shape": [null, 1, 128], "dtype": "float32", "keras_history": ["reshape_13", 0, 0]}}]], "kwargs": {}}]}, {"class_name": "Conv1D", "config": {"name": "conv1d_41", "trainable": true, "dtype": {"module": "keras", "class_name": "DTypePolicy", "config": {"name": "float32"}, "registered_name": null}, "filters": 128, "kernel_size": [1], "strides": [1], "padding": "same", "data_format": "channels_last", "dilation_rate": [1], "groups": 1, "activation": "linear", "use_bias": true, "kernel_initializer": {"module": "keras.initializers", "class_name": "GlorotUniform", "config": {"seed": null}, "registered_name": null}, "bias_initializer": {"module": "keras.initializers", "class_name": "Zeros", "config": {}, "registered_name": null}, "kernel_regularizer": null, "bias_regularizer": null, "activity_regularizer": null, "kernel_constraint": null, "bias_constraint": null}, "name": "conv1d_41", "inbound_nodes": [{"args": [{"class_name": "__keras_tensor__", "config": {"shape": [null, 512, 64], "dtype": "float32", "keras_history": ["max_pooling1d_12", 0, 0]}}], "kwargs": {}}]}, {"class_name": "Add", "config": {"name": "add_13", "trainable": true, "dtype": {"module": "keras", "class_name": "DTypePolicy", "config": {"name": "float32"}, "registered_name": null}}, "name": "add_13", "inbound_nodes": [{"args": [[{"class_name": "__keras_tensor__", "config": {"shape": [null, 512, 128], "dtype": "float32", "keras_history": ["multiply_13", 0, 0]}}, {"class_name": "__keras_tensor__", "config": {"shape": [null, 512, 128], "dtype": "float32", "keras_history": ["conv1d_41", 0, 0]}}]], "kwargs": {}}]}, {"class_name": "ReLU", "config": {"name": "re_lu_27", "trainable": true, "dtype": {"module": "keras", "class_name": "DTypePolicy", "config": {"name": "float32"}, "registered_name": null}, "max_value": null, "negative_slope": 0.0, "threshold": 0.0}, "name": "re_lu_27", "inbound_nodes": [{"args": [{"class_name": "__keras_tensor__", "config": {"shape": [null, 512, 128], "dtype": "float32", "keras_history": ["add_13", 0, 0]}}], "kwargs": {}}]}, {"class_name": "MaxPooling1D", "config": {"name": "max_pooling1d_13", "trainable": true, "dtype": {"module": "keras", "class_name": "DTypePolicy", "config": {"name": "float32"}, "registered_name": null}, "pool_size": [2], "padding": "valid", "strides": [2], "data_format": "channels_last"}, "name": "max_pooling1d_13", "inbound_nodes": [{"args": [{"class_name": "__keras_tensor__", "config": {"shape": [null, 512, 128], "dtype": "float32", "keras_history": ["re_lu_27", 0, 0]}}], "kwargs": {}}]}, {"class_name": "Conv1D", "config": {"name": "conv1d_42", "trainable": true, "dtype": {"module": "keras", "class_name": "DTypePolicy", "config": {"name": "float32"}, "registered_name": null}, "filters": 256, "kernel_size": [7], "strides": [1], "padding": "same", "data_format": "channels_last", "dilation_rate": [1], "groups": 1, "activation": "linear", "use_bias": true, "kernel_initializer": {"module": "keras.initializers", "class_name": "GlorotUniform", "config": {"seed": null}, "registered_name": null}, "bias_initializer": {"module": "keras.initializers", "class_name": "Zeros", "config": {}, "registered_name": null}, "kernel_regularizer": null, "bias_regularizer": null, "activity_regularizer": null, "kernel_constraint": null, "bias_constraint": null}, "name": "conv1d_42", "inbound_nodes": [{"args": [{"class_name": "__keras_tensor__", "config": {"shape": [null, 256, 128], "dtype": "float32", "keras_history": ["max_pooling1d_13", 0, 0]}}], "kwargs": {}}]}, {"class_name": "BatchNormalization", "config": {"name": "batch_normalization_28", "trainable": true, "dtype": {"module": "keras", "class_name": "DTypePolicy", "config": {"name": "float32"}, "registered_name": null}, "axis": -1, "momentum": 0.99, "epsilon": 0.001, "center": true, "scale": true, "beta_initializer": {"module": "keras.initializers", "class_name": "Zeros", "config": {}, "registered_name": null}, "gamma_initializer": {"module": "keras.initializers", "class_name": "Ones", "config": {}, "registered_name": null}, "moving_mean_initializer": {"module": "keras.initializers", "class_name": "Zeros", "config": {}, "registered_name": null}, "moving_variance_initializer": {"module": "keras.initializers", "class_name": "Ones", "config": {}, "registered_name": null}, "beta_regularizer": null, "gamma_regularizer": null, "beta_constraint": null, "gamma_constraint": null, "synchronized": false}, "name": "batch_normalization_28", "inbound_nodes": [{"args": [{"class_name": "__keras_tensor__", "config": {"shape": [null, 256, 256], "dtype": "float32", "keras_history": ["conv1d_42", 0, 0]}}], "kwargs": {"mask": null}}]}, {"class_name": "ReLU", "config": {"name": "re_lu_28", "trainable": true, "dtype": {"module": "keras", "class_name": "DTypePolicy", "config": {"name": "float32"}, "registered_name": null}, "max_value": null, "negative_slope": 0.0, "threshold": 0.0}, "name": "re_lu_28", "inbound_nodes": [{"args": [{"class_name": "__keras_tensor__", "config": {"shape": [null, 256, 256], "dtype": "float32", "keras_history": ["batch_normalization_28", 0, 0]}}], "kwargs": {}}]}, {"class_name": "Conv1D", "config": {"name": "conv1d_43", "trainable": true, "dtype": {"module": "keras", "class_name": "DTypePolicy", "config": {"name": "float32"}, "registered_name": null}, "filters": 256, "kernel_size": [7], "strides": [1], "padding": "same", "data_format": "channels_last", "dilation_rate": [1], "groups": 1, "activation": "linear", "use_bias": true, "kernel_initializer": {"module": "keras.initializers", "class_name": "GlorotUniform", "config": {"seed": null}, "registered_name": null}, "bias_initializer": {"module": "keras.initializers", "class_name": "Zeros", "config": {}, "registered_name": null}, "kernel_regularizer": null, "bias_regularizer": null, "activity_regularizer": null, "kernel_constraint": null, "bias_constraint": null}, "name": "conv1d_43", "inbound_nodes": [{"args": [{"class_name": "__keras_tensor__", "config": {"shape": [null, 256, 256], "dtype": "float32", "keras_history": ["re_lu_28", 0, 0]}}], "kwargs": {}}]}, {"class_name": "BatchNormalization", "config": {"name": "batch_normalization_29", "trainable": true, "dtype": {"module": "keras", "class_name": "DTypePolicy", "config": {"name": "float32"}, "registered_name": null}, "axis": -1, "momentum": 0.99, "epsilon": 0.001, "center": true, "scale": true, "beta_initializer": {"module": "keras.initializers", "class_name": "Zeros", "config": {}, "registered_name": null}, "gamma_initializer": {"module": "keras.initializers", "class_name": "Ones", "config": {}, "registered_name": null}, "moving_mean_initializer": {"module": "keras.initializers", "class_name": "Zeros", "config": {}, "registered_name": null}, "moving_variance_initializer": {"module": "keras.initializers", "class_name": "Ones", "config": {}, "registered_name": null}, "beta_regularizer": null, "gamma_regularizer": null, "beta_constraint": null, "gamma_constraint": null, "synchronized": false}, "name": "batch_normalization_29", "inbound_nodes": [{"args": [{"class_name": "__keras_tensor__", "config": {"shape": [null, 256, 256], "dtype": "float32", "keras_history": ["conv1d_43", 0, 0]}}], "kwargs": {"mask": null}}]}, {"class_name": "GlobalAveragePooling1D", "config": {"name": "global_average_pooling1d_17", "trainable": true, "dtype": {"module": "keras", "class_name": "DTypePolicy", "config": {"name": "float32"}, "registered_name": null}, "data_format": "channels_last", "keepdims": false}, "name": "global_average_pooling1d_17", "inbound_nodes": [{"args": [{"class_name": "__keras_tensor__", "config": {"shape": [null, 256, 256], "dtype": "float32", "keras_history": ["batch_normalization_29", 0, 0]}}], "kwargs": {"mask": null}}]}, {"class_name": "Dense", "config": {"name": "dense_37", "trainable": true, "dtype": {"module": "keras", "class_name": "DTypePolicy", "config": {"name": "float32"}, "registered_name": null}, "units": 16, "activation": "relu", "use_bias": true, "kernel_initializer": {"module": "keras.initializers", "class_name": "GlorotUniform", "config": {"seed": null}, "registered_name": null}, "bias_initializer": {"module": "keras.initializers", "class_name": "Zeros", "config": {}, "registered_name": null}, "kernel_regularizer": null, "bias_regularizer": null, "kernel_constraint": null, "bias_constraint": null}, "name": "dense_37", "inbound_nodes": [{"args": [{"class_name": "__keras_tensor__", "config": {"shape": [null, 256], "dtype": "float32", "keras_history": ["global_average_pooling1d_17", 0, 0]}}], "kwargs": {}}]}, {"class_name": "Dense", "config": {"name": "dense_38", "trainable": true, "dtype": {"module": "keras", "class_name": "DTypePolicy", "config": {"name": "float32"}, "registered_name": null}, "units": 256, "activation": "sigmoid", "use_bias": true, "kernel_initializer": {"module": "keras.initializers", "class_name": "GlorotUniform", "config": {"seed": null}, "registered_name": null}, "bias_initializer": {"module": "keras.initializers", "class_name": "Zeros", "config": {}, "registered_name": null}, "kernel_regularizer": null, "bias_regularizer": null, "kernel_constraint": null, "bias_constraint": null}, "name": "dense_38", "inbound_nodes": [{"args": [{"class_name": "__keras_tensor__", "config": {"shape": [null, 16], "dtype": "float32", "keras_history": ["dense_37", 0, 0]}}], "kwargs": {}}]}, {"class_name": "Reshape", "config": {"name": "reshape_14", "trainable": true, "dtype": {"module": "keras", "class_name": "DTypePolicy", "config": {"name": "float32"}, "registered_name": null}, "target_shape": [1, 256]}, "name": "reshape_14", "inbound_nodes": [{"args": [{"class_name": "__keras_tensor__", "config": {"shape": [null, 256], "dtype": "float32", "keras_history": ["dense_38", 0, 0]}}], "kwargs": {}}]}, {"class_name": "Multiply", "config": {"name": "multiply_14", "trainable": true, "dtype": {"module": "keras", "class_name": "DTypePolicy", "config": {"name": "float32"}, "registered_name": null}}, "name": "multiply_14", "inbound_nodes": [{"args": [[{"class_name": "__keras_tensor__", "config": {"shape": [null, 256, 256], "dtype": "float32", "keras_history": ["batch_normalization_29", 0, 0]}}, {"class_name": "__keras_tensor__", "config": {"shape": [null, 1, 256], "dtype": "float32", "keras_history": ["reshape_14", 0, 0]}}]], "kwargs": {}}]}, {"class_name": "Conv1D", "config": {"name": "conv1d_44", "trainable": true, "dtype": {"module": "keras", "class_name": "DTypePolicy", "config": {"name": "float32"}, "registered_name": null}, "filters": 256, "kernel_size": [1], "strides": [1], "padding": "same", "data_format": "channels_last", "dilation_rate": [1], "groups": 1, "activation": "linear", "use_bias": true, "kernel_initializer": {"module": "keras.initializers", "class_name": "GlorotUniform", "config": {"seed": null}, "registered_name": null}, "bias_initializer": {"module": "keras.initializers", "class_name": "Zeros", "config": {}, "registered_name": null}, "kernel_regularizer": null, "bias_regularizer": null, "activity_regularizer": null, "kernel_constraint": null, "bias_constraint": null}, "name": "conv1d_44", "inbound_nodes": [{"args": [{"class_name": "__keras_tensor__", "config": {"shape": [null, 256, 128], "dtype": "float32", "keras_history": ["max_pooling1d_13", 0, 0]}}], "kwargs": {}}]}, {"class_name": "Add", "config": {"name": "add_14", "trainable": true, "dtype": {"module": "keras", "class_name": "DTypePolicy", "config": {"name": "float32"}, "registered_name": null}}, "name": "add_14", "inbound_nodes": [{"args": [[{"class_name": "__keras_tensor__", "config": {"shape": [null, 256, 256], "dtype": "float32", "keras_history": ["multiply_14", 0, 0]}}, {"class_name": "__keras_tensor__", "config": {"shape": [null, 256, 256], "dtype": "float32", "keras_history": ["conv1d_44", 0, 0]}}]], "kwargs": {}}]}, {"class_name": "ReLU", "config": {"name": "re_lu_29", "trainable": true, "dtype": {"module": "keras", "class_name": "DTypePolicy", "config": {"name": "float32"}, "registered_name": null}, "max_value": null, "negative_slope": 0.0, "threshold": 0.0}, "name": "re_lu_29", "inbound_nodes": [{"args": [{"class_name": "__keras_tensor__", "config": {"shape": [null, 256, 256], "dtype": "float32", "keras_history": ["add_14", 0, 0]}}], "kwargs": {}}]}, {"class_name": "MaxPooling1D", "config": {"name": "max_pooling1d_14", "trainable": true, "dtype": {"module": "keras", "class_name": "DTypePolicy", "config": {"name": "float32"}, "registered_name": null}, "pool_size": [2], "padding": "valid", "strides": [2], "data_format": "channels_last"}, "name": "max_pooling1d_14", "inbound_nodes": [{"args": [{"class_name": "__keras_tensor__", "config": {"shape": [null, 256, 256], "dtype": "float32", "keras_history": ["re_lu_29", 0, 0]}}], "kwargs": {}}]}, {"class_name": "Conv1D", "config": {"name": "conv1d_45", "trainable": true, "dtype": {"module": "keras", "class_name": "DTypePolicy", "config": {"name": "float32"}, "registered_name": null}, "filters": 512, "kernel_size": [7], "strides": [1], "padding": "same", "data_format": "channels_last", "dilation_rate": [1], "groups": 1, "activation": "linear", "use_bias": true, "kernel_initializer": {"module": "keras.initializers", "class_name": "GlorotUniform", "config": {"seed": null}, "registered_name": null}, "bias_initializer": {"module": "keras.initializers", "class_name": "Zeros", "config": {}, "registered_name": null}, "kernel_regularizer": null, "bias_regularizer": null, "activity_regularizer": null, "kernel_constraint": null, "bias_constraint": null}, "name": "conv1d_45", "inbound_nodes": [{"args": [{"class_name": "__keras_tensor__", "config": {"shape": [null, 128, 256], "dtype": "float32", "keras_history": ["max_pooling1d_14", 0, 0]}}], "kwargs": {}}]}, {"class_name": "BatchNormalization", "config": {"name": "batch_normalization_30", "trainable": true, "dtype": {"module": "keras", "class_name": "DTypePolicy", "config": {"name": "float32"}, "registered_name": null}, "axis": -1, "momentum": 0.99, "epsilon": 0.001, "center": true, "scale": true, "beta_initializer": {"module": "keras.initializers", "class_name": "Zeros", "config": {}, "registered_name": null}, "gamma_initializer": {"module": "keras.initializers", "class_name": "Ones", "config": {}, "registered_name": null}, "moving_mean_initializer": {"module": "keras.initializers", "class_name": "Zeros", "config": {}, "registered_name": null}, "moving_variance_initializer": {"module": "keras.initializers", "class_name": "Ones", "config": {}, "registered_name": null}, "beta_regularizer": null, "gamma_regularizer": null, "beta_constraint": null, "gamma_constraint": null, "synchronized": false}, "name": "batch_normalization_30", "inbound_nodes": [{"args": [{"class_name": "__keras_tensor__", "config": {"shape": [null, 128, 512], "dtype": "float32", "keras_history": ["conv1d_45", 0, 0]}}], "kwargs": {"mask": null}}]}, {"class_name": "ReLU", "config": {"name": "re_lu_30", "trainable": true, "dtype": {"module": "keras", "class_name": "DTypePolicy", "config": {"name": "float32"}, "registered_name": null}, "max_value": null, "negative_slope": 0.0, "threshold": 0.0}, "name": "re_lu_30", "inbound_nodes": [{"args": [{"class_name": "__keras_tensor__", "config": {"shape": [null, 128, 512], "dtype": "float32", "keras_history": ["batch_normalization_30", 0, 0]}}], "kwargs": {}}]}, {"class_name": "Conv1D", "config": {"name": "conv1d_46", "trainable": true, "dtype": {"module": "keras", "class_name": "DTypePolicy", "config": {"name": "float32"}, "registered_name": null}, "filters": 512, "kernel_size": [7], "strides": [1], "padding": "same", "data_format": "channels_last", "dilation_rate": [1], "groups": 1, "activation": "linear", "use_bias": true, "kernel_initializer": {"module": "keras.initializers", "class_name": "GlorotUniform", "config": {"seed": null}, "registered_name": null}, "bias_initializer": {"module": "keras.initializers", "class_name": "Zeros", "config": {}, "registered_name": null}, "kernel_regularizer": null, "bias_regularizer": null, "activity_regularizer": null, "kernel_constraint": null, "bias_constraint": null}, "name": "conv1d_46", "inbound_nodes": [{"args": [{"class_name": "__keras_tensor__", "config": {"shape": [null, 128, 512], "dtype": "float32", "keras_history": ["re_lu_30", 0, 0]}}], "kwargs": {}}]}, {"class_name": "BatchNormalization", "config": {"name": "batch_normalization_31", "trainable": true, "dtype": {"module": "keras", "class_name": "DTypePolicy", "config": {"name": "float32"}, "registered_name": null}, "axis": -1, "momentum": 0.99, "epsilon": 0.001, "center": true, "scale": true, "beta_initializer": {"module": "keras.initializers", "class_name": "Zeros", "config": {}, "registered_name": null}, "gamma_initializer": {"module": "keras.initializers", "class_name": "Ones", "config": {}, "registered_name": null}, "moving_mean_initializer": {"module": "keras.initializers", "class_name": "Zeros", "config": {}, "registered_name": null}, "moving_variance_initializer": {"module": "keras.initializers", "class_name": "Ones", "config": {}, "registered_name": null}, "beta_regularizer": null, "gamma_regularizer": null, "beta_constraint": null, "gamma_constraint": null, "synchronized": false}, "name": "batch_normalization_31", "inbound_nodes": [{"args": [{"class_name": "__keras_tensor__", "config": {"shape": [null, 128, 512], "dtype": "float32", "keras_history": ["conv1d_46", 0, 0]}}], "kwargs": {"mask": null}}]}, {"class_name": "GlobalAveragePooling1D", "config": {"name": "global_average_pooling1d_18", "trainable": true, "dtype": {"module": "keras", "class_name": "DTypePolicy", "config": {"name": "float32"}, "registered_name": null}, "data_format": "channels_last", "keepdims": false}, "name": "global_average_pooling1d_18", "inbound_nodes": [{"args": [{"class_name": "__keras_tensor__", "config": {"shape": [null, 128, 512], "dtype": "float32", "keras_history": ["batch_normalization_31", 0, 0]}}], "kwargs": {"mask": null}}]}, {"class_name": "Dense", "config": {"name": "dense_39", "trainable": true, "dtype": {"module": "keras", "class_name": "DTypePolicy", "config": {"name": "float32"}, "registered_name": null}, "units": 32, "activation": "relu", "use_bias": true, "kernel_initializer": {"module": "keras.initializers", "class_name": "GlorotUniform", "config": {"seed": null}, "registered_name": null}, "bias_initializer": {"module": "keras.initializers", "class_name": "Zeros", "config": {}, "registered_name": null}, "kernel_regularizer": null, "bias_regularizer": null, "kernel_constraint": null, "bias_constraint": null}, "name": "dense_39", "inbound_nodes": [{"args": [{"class_name": "__keras_tensor__", "config": {"shape": [null, 512], "dtype": "float32", "keras_history": ["global_average_pooling1d_18", 0, 0]}}], "kwargs": {}}]}, {"class_name": "Dense", "config": {"name": "dense_40", "trainable": true, "dtype": {"module": "keras", "class_name": "DTypePolicy", "config": {"name": "float32"}, "registered_name": null}, "units": 512, "activation": "sigmoid", "use_bias": true, "kernel_initializer": {"module": "keras.initializers", "class_name": "GlorotUniform", "config": {"seed": null}, "registered_name": null}, "bias_initializer": {"module": "keras.initializers", "class_name": "Zeros", "config": {}, "registered_name": null}, "kernel_regularizer": null, "bias_regularizer": null, "kernel_constraint": null, "bias_constraint": null}, "name": "dense_40", "inbound_nodes": [{"args": [{"class_name": "__keras_tensor__", "config": {"shape": [null, 32], "dtype": "float32", "keras_history": ["dense_39", 0, 0]}}], "kwargs": {}}]}, {"class_name": "Reshape", "config": {"name": "reshape_15", "trainable": true, "dtype": {"module": "keras", "class_name": "DTypePolicy", "config": {"name": "float32"}, "registered_name": null}, "target_shape": [1, 512]}, "name": "reshape_15", "inbound_nodes": [{"args": [{"class_name": "__keras_tensor__", "config": {"shape": [null, 512], "dtype": "float32", "keras_history": ["dense_40", 0, 0]}}], "kwargs": {}}]}, {"class_name": "Multiply", "config": {"name": "multiply_15", "trainable": true, "dtype": {"module": "keras", "class_name": "DTypePolicy", "config": {"name": "float32"}, "registered_name": null}}, "name": "multiply_15", "inbound_nodes": [{"args": [[{"class_name": "__keras_tensor__", "config": {"shape": [null, 128, 512], "dtype": "float32", "keras_history": ["batch_normalization_31", 0, 0]}}, {"class_name": "__keras_tensor__", "config": {"shape": [null, 1, 512], "dtype": "float32", "keras_history": ["reshape_15", 0, 0]}}]], "kwargs": {}}]}, {"class_name": "Conv1D", "config": {"name": "conv1d_47", "trainable": true, "dtype": {"module": "keras", "class_name": "DTypePolicy", "config": {"name": "float32"}, "registered_name": null}, "filters": 512, "kernel_size": [1], "strides": [1], "padding": "same", "data_format": "channels_last", "dilation_rate": [1], "groups": 1, "activation": "linear", "use_bias": true, "kernel_initializer": {"module": "keras.initializers", "class_name": "GlorotUniform", "config": {"seed": null}, "registered_name": null}, "bias_initializer": {"module": "keras.initializers", "class_name": "Zeros", "config": {}, "registered_name": null}, "kernel_regularizer": null, "bias_regularizer": null, "activity_regularizer": null, "kernel_constraint": null, "bias_constraint": null}, "name": "conv1d_47", "inbound_nodes": [{"args": [{"class_name": "__keras_tensor__", "config": {"shape": [null, 128, 256], "dtype": "float32", "keras_history": ["max_pooling1d_14", 0, 0]}}], "kwargs": {}}]}, {"class_name": "Add", "config": {"name": "add_15", "trainable": true, "dtype": {"module": "keras", "class_name": "DTypePolicy", "config": {"name": "float32"}, "registered_name": null}}, "name": "add_15", "inbound_nodes": [{"args": [[{"class_name": "__keras_tensor__", "config": {"shape": [null, 128, 512], "dtype": "float32", "keras_history": ["multiply_15", 0, 0]}}, {"class_name": "__keras_tensor__", "config": {"shape": [null, 128, 512], "dtype": "float32", "keras_history": ["conv1d_47", 0, 0]}}]], "kwargs": {}}]}, {"class_name": "Lambda", "config": {"name": "features_split_lambda", "trainable": true, "dtype": {"module": "keras", "class_name": "DTypePolicy", "config": {"name": "float32"}, "registered_name": null}, "function": {"class_name": "__lambda__", "config": {"code": "4wEAAAAAAAAAAAAAAAUAAAATAAAA8yAAAACVAZcAfABkAGQAhQKJAWQAhQJkAGQAhQJmAxkAAABT\nAKkBTqkAqQLaAXjaDXNpZ25hbF9sZW5ndGhzAgAAACCA+iAvdG1wL2lweXRob24taW5wdXQtMTA0\nODgzNzAyOS5wedoIPGxhbWJkYT76NGJ1aWxkX3NpbXBsaWZpZWRfZW1iZWRkaW5nX25ldHdvcmsu\nPGxvY2Fscz4uPGxhbWJkYT4kAAAAcxMAAAD4gACwAbIhsF2xXsJR0DJG0jBH8wAAAAA=\n", "defaults": null, "closure": [1024]}}, "arguments": {}}, "name": "features_split_lambda", "inbound_nodes": [{"args": [{"class_name": "__keras_tensor__", "config": {"shape": [null, 1044, 1], "dtype": "float32", "keras_history": ["input_layer_3", 0, 0]}}], "kwargs": {"mask": null}}]}, {"class_name": "ReLU", "config": {"name": "re_lu_31", "trainable": true, "dtype": {"module": "keras", "class_name": "DTypePolicy", "config": {"name": "float32"}, "registered_name": null}, "max_value": null, "negative_slope": 0.0, "threshold": 0.0}, "name": "re_lu_31", "inbound_nodes": [{"args": [{"class_name": "__keras_tensor__", "config": {"shape": [null, 128, 512], "dtype": "float32", "keras_history": ["add_15", 0, 0]}}], "kwargs": {}}]}, {"class_name": "Flatten", "config": {"name": "flatten_3", "trainable": true, "dtype": {"module": "keras", "class_name": "DTypePolicy", "config": {"name": "float32"}, "registered_name": null}, "data_format": "channels_last"}, "name": "flatten_3", "inbound_nodes": [{"args": [{"class_name": "__keras_tensor__", "config": {"shape": [null, 20, 1], "dtype": "float32", "keras_history": ["features_split_lambda", 0, 0]}}], "kwargs": {}}]}, {"class_name": "MaxPooling1D", "config": {"name": "max_pooling1d_15", "trainable": true, "dtype": {"module": "keras", "class_name": "DTypePolicy", "config": {"name": "float32"}, "registered_name": null}, "pool_size": [2], "padding": "valid", "strides": [2], "data_format": "channels_last"}, "name": "max_pooling1d_15", "inbound_nodes": [{"args": [{"class_name": "__keras_tensor__", "config": {"shape": [null, 128, 512], "dtype": "float32", "keras_history": ["re_lu_31", 0, 0]}}], "kwargs": {}}]}, {"class_name": "Dense", "config": {"name": "dense_41", "trainable": true, "dtype": {"module": "keras", "class_name": "DTypePolicy", "config": {"name": "float32"}, "registered_name": null}, "units": 128, "activation": "relu", "use_bias": true, "kernel_initializer": {"module": "keras.initializers", "class_name": "GlorotUniform", "config": {"seed": null}, "registered_name": null}, "bias_initializer": {"module": "keras.initializers", "class_name": "Zeros", "config": {}, "registered_name": null}, "kernel_regularizer": null, "bias_regularizer": null, "kernel_constraint": null, "bias_constraint": null}, "name": "dense_41", "inbound_nodes": [{"args": [{"class_name": "__keras_tensor__", "config": {"shape": [null, 20], "dtype": "float32", "keras_history": ["flatten_3", 0, 0]}}], "kwargs": {}}]}, {"class_name": "GlobalAveragePooling1D", "config": {"name": "global_average_pooling1d_19", "trainable": true, "dtype": {"module": "keras", "class_name": "DTypePolicy", "config": {"name": "float32"}, "registered_name": null}, "data_format": "channels_last", "keepdims": false}, "name": "global_average_pooling1d_19", "inbound_nodes": [{"args": [{"class_name": "__keras_tensor__", "config": {"shape": [null, 64, 512], "dtype": "float32", "keras_history": ["max_pooling1d_15", 0, 0]}}], "kwargs": {"mask": null}}]}, {"class_name": "Dropout", "config": {"name": "dropout_9", "trainable": true, "dtype": {"module": "keras", "class_name": "DTypePolicy", "config": {"name": "float32"}, "registered_name": null}, "rate": 0.3, "seed": null, "noise_shape": null}, "name": "dropout_9", "inbound_nodes": [{"args": [{"class_name": "__keras_tensor__", "config": {"shape": [null, 128], "dtype": "float32", "keras_history": ["dense_41", 0, 0]}}], "kwargs": {"training": false}}]}, {"class_name": "Concatenate", "config": {"name": "concatenate_3", "trainable": true, "dtype": {"module": "keras", "class_name": "DTypePolicy", "config": {"name": "float32"}, "registered_name": null}, "axis": -1}, "name": "concatenate_3", "inbound_nodes": [{"args": [[{"class_name": "__keras_tensor__", "config": {"shape": [null, 512], "dtype": "float32", "keras_history": ["global_average_pooling1d_19", 0, 0]}}, {"class_name": "__keras_tensor__", "config": {"shape": [null, 128], "dtype": "float32", "keras_history": ["dropout_9", 0, 0]}}]], "kwargs": {}}]}, {"class_name": "Dense", "config": {"name": "dense_42", "trainable": true, "dtype": {"module": "keras", "class_name": "DTypePolicy", "config": {"name": "float32"}, "registered_name": null}, "units": 512, "activation": "relu", "use_bias": true, "kernel_initializer": {"module": "keras.initializers", "class_name": "GlorotUniform", "config": {"seed": null}, "registered_name": null}, "bias_initializer": {"module": "keras.initializers", "class_name": "Zeros", "config": {}, "registered_name": null}, "kernel_regularizer": null, "bias_regularizer": null, "kernel_constraint": null, "bias_constraint": null}, "name": "dense_42", "inbound_nodes": [{"args": [{"class_name": "__keras_tensor__", "config": {"shape": [null, 640], "dtype": "float32", "keras_history": ["concatenate_3", 0, 0]}}], "kwargs": {}}]}, {"class_name": "Dropout", "config": {"name": "dropout_10", "trainable": true, "dtype": {"module": "keras", "class_name": "DTypePolicy", "config": {"name": "float32"}, "registered_name": null}, "rate": 0.5, "seed": null, "noise_shape": null}, "name": "dropout_10", "inbound_nodes": [{"args": [{"class_name": "__keras_tensor__", "config": {"shape": [null, 512], "dtype": "float32", "keras_history": ["dense_42", 0, 0]}}], "kwargs": {"training": false}}]}, {"class_name": "Dense", "config": {"name": "dense_43", "trainable": true, "dtype": {"module": "keras", "class_name": "DTypePolicy", "config": {"name": "float32"}, "registered_name": null}, "units": 256, "activation": "relu", "use_bias": true, "kernel_initializer": {"module": "keras.initializers", "class_name": "GlorotUniform", "config": {"seed": null}, "registered_name": null}, "bias_initializer": {"module": "keras.initializers", "class_name": "Zeros", "config": {}, "registered_name": null}, "kernel_regularizer": null, "bias_regularizer": null, "kernel_constraint": null, "bias_constraint": null}, "name": "dense_43", "inbound_nodes": [{"args": [{"class_name": "__keras_tensor__", "config": {"shape": [null, 512], "dtype": "float32", "keras_history": ["dropout_10", 0, 0]}}], "kwargs": {}}]}, {"class_name": "Dropout", "config": {"name": "dropout_11", "trainable": true, "dtype": {"module": "keras", "class_name": "DTypePolicy", "config": {"name": "float32"}, "registered_name": null}, "rate": 0.5, "seed": null, "noise_shape": null}, "name": "dropout_11", "inbound_nodes": [{"args": [{"class_name": "__keras_tensor__", "config": {"shape": [null, 256], "dtype": "float32", "keras_history": ["dense_43", 0, 0]}}], "kwargs": {"training": false}}]}, {"class_name": "Dense", "config": {"name": "raw_embeddings", "trainable": true, "dtype": {"module": "keras", "class_name": "DTypePolicy", "config": {"name": "float32"}, "registered_name": null}, "units": 256, "activation": "linear", "use_bias": true, "kernel_initializer": {"module": "keras.initializers", "class_name": "GlorotUniform", "config": {"seed": null}, "registered_name": null}, "bias_initializer": {"module": "keras.initializers", "class_name": "Zeros", "config": {}, "registered_name": null}, "kernel_regularizer": null, "bias_regularizer": null, "kernel_constraint": null, "bias_constraint": null}, "name": "raw_embeddings", "inbound_nodes": [{"args": [{"class_name": "__keras_tensor__", "config": {"shape": [null, 256], "dtype": "float32", "keras_history": ["dropout_11", 0, 0]}}], "kwargs": {}}]}], "input_layers": [["input_layer_3", 0, 0]], "output_layers": [["raw_embeddings", 0, 0]]}}}, "weightsManifest": [{"paths": ["group1-shard1of5.bin", "group1-shard2of5.bin", "group1-shard3of5.bin", "group1-shard4of5.bin", "group1-shard5of5.bin"], "weights": [{"name": "batch_normalization_24/gamma", "shape": [64], "dtype": "float32"}, {"name": "batch_normalization_24/beta", "shape": [64], "dtype": "float32"}, {"name": "batch_normalization_24/moving_mean", "shape": [64], "dtype": "float32"}, {"name": "batch_normalization_24/moving_variance", "shape": [64], "dtype": "float32"}, {"name": "batch_normalization_25/gamma", "shape": [64], "dtype": "float32"}, {"name": "batch_normalization_25/beta", "shape": [64], "dtype": "float32"}, {"name": "batch_normalization_25/moving_mean", "shape": [64], "dtype": "float32"}, {"name": "batch_normalization_25/moving_variance", "shape": [64], "dtype": "float32"}, {"name": "batch_normalization_26/gamma", "shape": [128], "dtype": "float32"}, {"name": "batch_normalization_26/beta", "shape": [128], "dtype": "float32"}, {"name": "batch_normalization_26/moving_mean", "shape": [128], "dtype": "float32"}, {"name": "batch_normalization_26/moving_variance", "shape": [128], "dtype": "float32"}, {"name": "batch_normalization_27/gamma", "shape": [128], "dtype": "float32"}, {"name": "batch_normalization_27/beta", "shape": [128], "dtype": "float32"}, {"name": "batch_normalization_27/moving_mean", "shape": [128], "dtype": "float32"}, {"name": "batch_normalization_27/moving_variance", "shape": [128], "dtype": "float32"}, {"name": "batch_normalization_28/gamma", "shape": [256], "dtype": "float32"}, {"name": "batch_normalization_28/beta", "shape": [256], "dtype": "float32"}, {"name": "batch_normalization_28/moving_mean", "shape": [256], "dtype": "float32"}, {"name": "batch_normalization_28/moving_variance", "shape": [256], "dtype": "float32"}, {"name": "batch_normalization_29/gamma", "shape": [256], "dtype": "float32"}, {"name": "batch_normalization_29/beta", "shape": [256], "dtype": "float32"}, {"name": "batch_normalization_29/moving_mean", "shape": [256], "dtype": "float32"}, {"name": "batch_normalization_29/moving_variance", "shape": [256], "dtype": "float32"}, {"name": "batch_normalization_30/gamma", "shape": [512], "dtype": "float32"}, {"name": "batch_normalization_30/beta", "shape": [512], "dtype": "float32"}, {"name": "batch_normalization_30/moving_mean", "shape": [512], "dtype": "float32"}, {"name": "batch_normalization_30/moving_variance", "shape": [512], "dtype": "float32"}, {"name": "batch_normalization_31/gamma", "shape": [512], "dtype": "float32"}, {"name": "batch_normalization_31/beta", "shape": [512], "dtype": "float32"}, {"name": "batch_normalization_31/moving_mean", "shape": [512], "dtype": "float32"}, {"name": "batch_normalization_31/moving_variance", "shape": [512], "dtype": "float32"}, {"name": "conv1d_36/kernel", "shape": [7, 1, 64], "dtype": "float32"}, {"name": "conv1d_36/bias", "shape": [64], "dtype": "float32"}, {"name": "conv1d_37/kernel", "shape": [7, 64, 64], "dtype": "float32"}, {"name": "conv1d_37/bias", "shape": [64], "dtype": "float32"}, {"name": "conv1d_38/kernel", "shape": [1, 1, 64], "dtype": "float32"}, {"name": "conv1d_38/bias", "shape": [64], "dtype": "float32"}, {"name": "conv1d_39/kernel", "shape": [7, 64, 128], "dtype": "float32"}, {"name": "conv1d_39/bias", "shape": [128], "dtype": "float32"}, {"name": "conv1d_40/kernel", "shape": [7, 128, 128], "dtype": "float32"}, {"name": "conv1d_40/bias", "shape": [128], "dtype": "float32"}, {"name": "conv1d_41/kernel", "shape": [1, 64, 128], "dtype": "float32"}, {"name": "conv1d_41/bias", "shape": [128], "dtype": "float32"}, {"name": "conv1d_42/kernel", "shape": [7, 128, 256], "dtype": "float32"}, {"name": "conv1d_42/bias", "shape": [256], "dtype": "float32"}, {"name": "conv1d_43/kernel", "shape": [7, 256, 256], "dtype": "float32"}, {"name": "conv1d_43/bias", "shape": [256], "dtype": "float32"}, {"name": "conv1d_44/kernel", "shape": [1, 128, 256], "dtype": "float32"}, {"name": "conv1d_44/bias", "shape": [256], "dtype": "float32"}, {"name": "conv1d_45/kernel", "shape": [7, 256, 512], "dtype": "float32"}, {"name": "conv1d_45/bias", "shape": [512], "dtype": "float32"}, {"name": "conv1d_46/kernel", "shape": [7, 512, 512], "dtype": "float32"}, {"name": "conv1d_46/bias", "shape": [512], "dtype": "float32"}, {"name": "conv1d_47/kernel", "shape": [1, 256, 512], "dtype": "float32"}, {"name": "conv1d_47/bias", "shape": [512], "dtype": "float32"}, {"name": "dense_33/kernel", "shape": [64, 4], "dtype": "float32"}, {"name": "dense_33/bias", "shape": [4], "dtype": "float32"}, {"name": "dense_34/kernel", "shape": [4, 64], "dtype": "float32"}, {"name": "dense_34/bias", "shape": [64], "dtype": "float32"}, {"name": "dense_35/kernel", "shape": [128, 8], "dtype": "float32"}, {"name": "dense_35/bias", "shape": [8], "dtype": "float32"}, {"name": "dense_36/kernel", "shape": [8, 128], "dtype": "float32"}, {"name": "dense_36/bias", "shape": [128], "dtype": "float32"}, {"name": "dense_37/kernel", "shape": [256, 16], "dtype": "float32"}, {"name": "dense_37/bias", "shape": [16], "dtype": "float32"}, {"name": "dense_38/kernel", "shape": [16, 256], "dtype": "float32"}, {"name": "dense_38/bias", "shape": [256], "dtype": "float32"}, {"name": "dense_39/kernel", "shape": [512, 32], "dtype": "float32"}, {"name": "dense_39/bias", "shape": [32], "dtype": "float32"}, {"name": "dense_40/kernel", "shape": [32, 512], "dtype": "float32"}, {"name": "dense_40/bias", "shape": [512], "dtype": "float32"}, {"name": "dense_41/kernel", "shape": [20, 128], "dtype": "float32"}, {"name": "dense_41/bias", "shape": [128], "dtype": "float32"}, {"name": "dense_42/kernel", "shape": [640, 512], "dtype": "float32"}, {"name": "dense_42/bias", "shape": [512], "dtype": "float32"}, {"name": "dense_43/kernel", "shape": [512, 256], "dtype": "float32"}, {"name": "dense_43/bias", "shape": [256], "dtype": "float32"}, {"name": "raw_embeddings/kernel", "shape": [256, 256], "dtype": "float32"}, {"name": "raw_embeddings/bias", "shape": [256], "dtype": "float32"}]}]}