{
  "format": "layers-model",
  "generatedBy": "keras v3.10.0",
  "convertedBy": "TensorFlow.js Converter v4.22.0",
  "modelTopology": {
    "keras_version": "3.10.0",
    "backend": "tensorflow",
    "model_config": {
      "class_name": "Functional",
      "config": {
        "name": "simplified_embedding_network_two_inputs",
        "trainable": true,
        "layers": [
          {
            "class_name": "InputLayer",
            "config": {
              "batch_input_shape": [
                null,
                1024,
                1
              ],
              "dtype": "float32",
              "sparse": false,
              "ragged": false,
              "name": "signal_input"
            },
            "name": "signal_input",
            "inbound_nodes": []
          },
          {
            "class_name": "Conv1D",
            "config": {
              "name": "conv1d_0",
              "trainable": true,
              "dtype": {
                "module": "keras",
                "class_name": "DTypePolicy",
                "config": {
                  "name": "float32"
                },
                "registered_name": null
              },
              "filters": 64,
              "kernel_size": [
                7
              ],
              "strides": [
                1
              ],
              "padding": "same",
              "data_format": "channels_last",
              "dilation_rate": [
                1
              ],
              "groups": 1,
              "activation": "linear",
              "use_bias": true,
              "kernel_initializer": {
                "module": "keras.initializers",
                "class_name": "GlorotUniform",
                "config": {
                  "seed": null
                },
                "registered_name": null
              },
              "bias_initializer": {
                "module": "keras.initializers",
                "class_name": "Zeros",
                "config": {},
                "registered_name": null
              },
              "kernel_regularizer": null,
              "bias_regularizer": null,
              "activity_regularizer": null,
              "kernel_constraint": null,
              "bias_constraint": null
            },
            "name": "conv1d_0",
            "inbound_nodes": [
              {
                "args": [
                  {
                    "class_name": "__keras_tensor__",
                    "config": {
                      "shape": [
                        null,
                        1024,
                        1
                      ],
                      "dtype": "float32",
                      "keras_history": [
                        "signal_input",
                        0,
                        0
                      ]
                    }
                  }
                ],
                "kwargs": {}
              }
            ]
          },
          {
            "class_name": "BatchNormalization",
            "config": {
              "name": "batch_normalization_0",
              "trainable": true,
              "dtype": {
                "module": "keras",
                "class_name": "DTypePolicy",
                "config": {
                  "name": "float32"
                },
                "registered_name": null
              },
              "axis": -1,
              "momentum": 0.99,
              "epsilon": 0.001,
              "center": true,
              "scale": true,
              "beta_initializer": {
                "module": "keras.initializers",
                "class_name": "Zeros",
                "config": {},
                "registered_name": null
              },
              "gamma_initializer": {
                "module": "keras.initializers",
                "class_name": "Ones",
                "config": {},
                "registered_name": null
              },
              "moving_mean_initializer": {
                "module": "keras.initializers",
                "class_name": "Zeros",
                "config": {},
                "registered_name": null
              },
              "moving_variance_initializer": {
                "module": "keras.initializers",
                "class_name": "Ones",
                "config": {},
                "registered_name": null
              },
              "beta_regularizer": null,
              "gamma_regularizer": null,
              "beta_constraint": null,
              "gamma_constraint": null,
              "synchronized": false
            },
            "name": "batch_normalization_0",
            "inbound_nodes": [
              {
                "args": [
                  {
                    "class_name": "__keras_tensor__",
                    "config": {
                      "shape": [
                        null,
                        1024,
                        64
                      ],
                      "dtype": "float32",
                      "keras_history": [
                        "conv1d_0",
                        0,
                        0
                      ]
                    }
                  }
                ],
                "kwargs": {
                  "mask": null
                }
              }
            ]
          },
          {
            "class_name": "ReLU",
            "config": {
              "name": "relu_0",
              "trainable": true,
              "dtype": {
                "module": "keras",
                "class_name": "DTypePolicy",
                "config": {
                  "name": "float32"
                },
                "registered_name": null
              },
              "max_value": null,
              "negative_slope": 0.0,
              "threshold": 0.0
            },
            "name": "relu_0",
            "inbound_nodes": [
              {
                "args": [
                  {
                    "class_name": "__keras_tensor__",
                    "config": {
                      "shape": [
                        null,
                        1024,
                        64
                      ],
                      "dtype": "float32",
                      "keras_history": [
                        "batch_normalization_0",
                        0,
                        0
                      ]
                    }
                  }
                ],
                "kwargs": {}
              }
            ]
          },
          {
            "class_name": "Conv1D",
            "config": {
              "name": "conv1d_1",
              "trainable": true,
              "dtype": {
                "module": "keras",
                "class_name": "DTypePolicy",
                "config": {
                  "name": "float32"
                },
                "registered_name": null
              },
              "filters": 64,
              "kernel_size": [
                7
              ],
              "strides": [
                1
              ],
              "padding": "same",
              "data_format": "channels_last",
              "dilation_rate": [
                1
              ],
              "groups": 1,
              "activation": "linear",
              "use_bias": true,
              "kernel_initializer": {
                "module": "keras.initializers",
                "class_name": "GlorotUniform",
                "config": {
                  "seed": null
                },
                "registered_name": null
              },
              "bias_initializer": {
                "module": "keras.initializers",
                "class_name": "Zeros",
                "config": {},
                "registered_name": null
              },
              "kernel_regularizer": null,
              "bias_regularizer": null,
              "activity_regularizer": null,
              "kernel_constraint": null,
              "bias_constraint": null
            },
            "name": "conv1d_1",
            "inbound_nodes": [
              {
                "args": [
                  {
                    "class_name": "__keras_tensor__",
                    "config": {
                      "shape": [
                        null,
                        1024,
                        64
                      ],
                      "dtype": "float32",
                      "keras_history": [
                        "relu_0",
                        0,
                        0
                      ]
                    }
                  }
                ],
                "kwargs": {}
              }
            ]
          },
          {
            "class_name": "BatchNormalization",
            "config": {
              "name": "batch_normalization_1",
              "trainable": true,
              "dtype": {
                "module": "keras",
                "class_name": "DTypePolicy",
                "config": {
                  "name": "float32"
                },
                "registered_name": null
              },
              "axis": -1,
              "momentum": 0.99,
              "epsilon": 0.001,
              "center": true,
              "scale": true,
              "beta_initializer": {
                "module": "keras.initializers",
                "class_name": "Zeros",
                "config": {},
                "registered_name": null
              },
              "gamma_initializer": {
                "module": "keras.initializers",
                "class_name": "Ones",
                "config": {},
                "registered_name": null
              },
              "moving_mean_initializer": {
                "module": "keras.initializers",
                "class_name": "Zeros",
                "config": {},
                "registered_name": null
              },
              "moving_variance_initializer": {
                "module": "keras.initializers",
                "class_name": "Ones",
                "config": {},
                "registered_name": null
              },
              "beta_regularizer": null,
              "gamma_regularizer": null,
              "beta_constraint": null,
              "gamma_constraint": null,
              "synchronized": false
            },
            "name": "batch_normalization_1",
            "inbound_nodes": [
              {
                "args": [
                  {
                    "class_name": "__keras_tensor__",
                    "config": {
                      "shape": [
                        null,
                        1024,
                        64
                      ],
                      "dtype": "float32",
                      "keras_history": [
                        "conv1d_1",
                        0,
                        0
                      ]
                    }
                  }
                ],
                "kwargs": {
                  "mask": null
                }
              }
            ]
          },
          {
            "class_name": "GlobalAveragePooling1D",
            "config": {
              "name": "global_average_pooling1d_se_0",
              "trainable": true,
              "dtype": {
                "module": "keras",
                "class_name": "DTypePolicy",
                "config": {
                  "name": "float32"
                },
                "registered_name": null
              },
              "data_format": "channels_last",
              "keepdims": false
            },
            "name": "global_average_pooling1d_se_0",
            "inbound_nodes": [
              {
                "args": [
                  {
                    "class_name": "__keras_tensor__",
                    "config": {
                      "shape": [
                        null,
                        1024,
                        64
                      ],
                      "dtype": "float32",
                      "keras_history": [
                        "batch_normalization_1",
                        0,
                        0
                      ]
                    }
                  }
                ],
                "kwargs": {
                  "mask": null
                }
              }
            ]
          },
          {
            "class_name": "Dense",
            "config": {
              "name": "dense_se_1_0",
              "trainable": true,
              "dtype": {
                "module": "keras",
                "class_name": "DTypePolicy",
                "config": {
                  "name": "float32"
                },
                "registered_name": null
              },
              "units": 4,
              "activation": "relu",
              "use_bias": true,
              "kernel_initializer": {
                "module": "keras.initializers",
                "class_name": "GlorotUniform",
                "config": {
                  "seed": null
                },
                "registered_name": null
              },
              "bias_initializer": {
                "module": "keras.initializers",
                "class_name": "Zeros",
                "config": {},
                "registered_name": null
              },
              "kernel_regularizer": null,
              "bias_regularizer": null,
              "kernel_constraint": null,
              "bias_constraint": null
            },
            "name": "dense_se_1_0",
            "inbound_nodes": [
              {
                "args": [
                  {
                    "class_name": "__keras_tensor__",
                    "config": {
                      "shape": [
                        null,
                        64
                      ],
                      "dtype": "float32",
                      "keras_history": [
                        "global_average_pooling1d_se_0",
                        0,
                        0
                      ]
                    }
                  }
                ],
                "kwargs": {}
              }
            ]
          },
          {
            "class_name": "Dense",
            "config": {
              "name": "dense_se_2_0",
              "trainable": true,
              "dtype": {
                "module": "keras",
                "class_name": "DTypePolicy",
                "config": {
                  "name": "float32"
                },
                "registered_name": null
              },
              "units": 64,
              "activation": "sigmoid",
              "use_bias": true,
              "kernel_initializer": {
                "module": "keras.initializers",
                "class_name": "GlorotUniform",
                "config": {
                  "seed": null
                },
                "registered_name": null
              },
              "bias_initializer": {
                "module": "keras.initializers",
                "class_name": "Zeros",
                "config": {},
                "registered_name": null
              },
              "kernel_regularizer": null,
              "bias_regularizer": null,
              "kernel_constraint": null,
              "bias_constraint": null
            },
            "name": "dense_se_2_0",
            "inbound_nodes": [
              {
                "args": [
                  {
                    "class_name": "__keras_tensor__",
                    "config": {
                      "shape": [
                        null,
                        4
                      ],
                      "dtype": "float32",
                      "keras_history": [
                        "dense_se_1_0",
                        0,
                        0
                      ]
                    }
                  }
                ],
                "kwargs": {}
              }
            ]
          },
          {
            "class_name": "Reshape",
            "config": {
              "name": "reshape_se_0",
              "trainable": true,
              "dtype": {
                "module": "keras",
                "class_name": "DTypePolicy",
                "config": {
                  "name": "float32"
                },
                "registered_name": null
              },
              "target_shape": [
                1,
                64
              ]
            },
            "name": "reshape_se_0",
            "inbound_nodes": [
              {
                "args": [
                  {
                    "class_name": "__keras_tensor__",
                    "config": {
                      "shape": [
                        null,
                        64
                      ],
                      "dtype": "float32",
                      "keras_history": [
                        "dense_se_2_0",
                        0,
                        0
                      ]
                    }
                  }
                ],
                "kwargs": {}
              }
            ]
          },
          {
            "class_name": "Multiply",
            "config": {
              "name": "multiply_se_0",
              "trainable": true,
              "dtype": {
                "module": "keras",
                "class_name": "DTypePolicy",
                "config": {
                  "name": "float32"
                },
                "registered_name": null
              }
            },
            "name": "multiply_se_0",
            "inbound_nodes": [
              {
                "args": [
                  [
                    {
                      "class_name": "__keras_tensor__",
                      "config": {
                        "shape": [
                          null,
                          1024,
                          64
                        ],
                        "dtype": "float32",
                        "keras_history": [
                          "batch_normalization_1",
                          0,
                          0
                        ]
                      }
                    },
                    {
                      "class_name": "__keras_tensor__",
                      "config": {
                        "shape": [
                          null,
                          1,
                          64
                        ],
                        "dtype": "float32",
                        "keras_history": [
                          "reshape_se_0",
                          0,
                          0
                        ]
                      }
                    }
                  ]
                ],
                "kwargs": {}
              }
            ]
          },
          {
            "class_name": "Conv1D",
            "config": {
              "name": "conv1d_res_0",
              "trainable": true,
              "dtype": {
                "module": "keras",
                "class_name": "DTypePolicy",
                "config": {
                  "name": "float32"
                },
                "registered_name": null
              },
              "filters": 64,
              "kernel_size": [
                1
              ],
              "strides": [
                1
              ],
              "padding": "same",
              "data_format": "channels_last",
              "dilation_rate": [
                1
              ],
              "groups": 1,
              "activation": "linear",
              "use_bias": true,
              "kernel_initializer": {
                "module": "keras.initializers",
                "class_name": "GlorotUniform",
                "config": {
                  "seed": null
                },
                "registered_name": null
              },
              "bias_initializer": {
                "module": "keras.initializers",
                "class_name": "Zeros",
                "config": {},
                "registered_name": null
              },
              "kernel_regularizer": null,
              "bias_regularizer": null,
              "activity_regularizer": null,
              "kernel_constraint": null,
              "bias_constraint": null
            },
            "name": "conv1d_res_0",
            "inbound_nodes": [
              {
                "args": [
                  {
                    "class_name": "__keras_tensor__",
                    "config": {
                      "shape": [
                        null,
                        1024,
                        1
                      ],
                      "dtype": "float32",
                      "keras_history": [
                        "signal_input",
                        0,
                        0
                      ]
                    }
                  }
                ],
                "kwargs": {}
              }
            ]
          },
          {
            "class_name": "Add",
            "config": {
              "name": "add_0",
              "trainable": true,
              "dtype": {
                "module": "keras",
                "class_name": "DTypePolicy",
                "config": {
                  "name": "float32"
                },
                "registered_name": null
              }
            },
            "name": "add_0",
            "inbound_nodes": [
              {
                "args": [
                  [
                    {
                      "class_name": "__keras_tensor__",
                      "config": {
                        "shape": [
                          null,
                          1024,
                          64
                        ],
                        "dtype": "float32",
                        "keras_history": [
                          "multiply_se_0",
                          0,
                          0
                        ]
                      }
                    },
                    {
                      "class_name": "__keras_tensor__",
                      "config": {
                        "shape": [
                          null,
                          1024,
                          64
                        ],
                        "dtype": "float32",
                        "keras_history": [
                          "conv1d_res_0",
                          0,
                          0
                        ]
                      }
                    }
                  ]
                ],
                "kwargs": {}
              }
            ]
          },
          {
            "class_name": "ReLU",
            "config": {
              "name": "relu_add_0",
              "trainable": true,
              "dtype": {
                "module": "keras",
                "class_name": "DTypePolicy",
                "config": {
                  "name": "float32"
                },
                "registered_name": null
              },
              "max_value": null,
              "negative_slope": 0.0,
              "threshold": 0.0
            },
            "name": "relu_add_0",
            "inbound_nodes": [
              {
                "args": [
                  {
                    "class_name": "__keras_tensor__",
                    "config": {
                      "shape": [
                        null,
                        1024,
                        64
                      ],
                      "dtype": "float32",
                      "keras_history": [
                        "add_0",
                        0,
                        0
                      ]
                    }
                  }
                ],
                "kwargs": {}
              }
            ]
          },
          {
            "class_name": "MaxPooling1D",
            "config": {
              "name": "max_pooling1d_0",
              "trainable": true,
              "dtype": {
                "module": "keras",
                "class_name": "DTypePolicy",
                "config": {
                  "name": "float32"
                },
                "registered_name": null
              },
              "pool_size": [
                2
              ],
              "padding": "valid",
              "strides": [
                2
              ],
              "data_format": "channels_last"
            },
            "name": "max_pooling1d_0",
            "inbound_nodes": [
              {
                "args": [
                  {
                    "class_name": "__keras_tensor__",
                    "config": {
                      "shape": [
                        null,
                        1024,
                        64
                      ],
                      "dtype": "float32",
                      "keras_history": [
                        "relu_add_0",
                        0,
                        0
                      ]
                    }
                  }
                ],
                "kwargs": {}
              }
            ]
          },
          {
            "class_name": "Conv1D",
            "config": {
              "name": "conv1d_2",
              "trainable": true,
              "dtype": {
                "module": "keras",
                "class_name": "DTypePolicy",
                "config": {
                  "name": "float32"
                },
                "registered_name": null
              },
              "filters": 128,
              "kernel_size": [
                7
              ],
              "strides": [
                1
              ],
              "padding": "same",
              "data_format": "channels_last",
              "dilation_rate": [
                1
              ],
              "groups": 1,
              "activation": "linear",
              "use_bias": true,
              "kernel_initializer": {
                "module": "keras.initializers",
                "class_name": "GlorotUniform",
                "config": {
                  "seed": null
                },
                "registered_name": null
              },
              "bias_initializer": {
                "module": "keras.initializers",
                "class_name": "Zeros",
                "config": {},
                "registered_name": null
              },
              "kernel_regularizer": null,
              "bias_regularizer": null,
              "activity_regularizer": null,
              "kernel_constraint": null,
              "bias_constraint": null
            },
            "name": "conv1d_2",
            "inbound_nodes": [
              {
                "args": [
                  {
                    "class_name": "__keras_tensor__",
                    "config": {
                      "shape": [
                        null,
                        512,
                        64
                      ],
                      "dtype": "float32",
                      "keras_history": [
                        "max_pooling1d_0",
                        0,
                        0
                      ]
                    }
                  }
                ],
                "kwargs": {}
              }
            ]
          },
          {
            "class_name": "BatchNormalization",
            "config": {
              "name": "batch_normalization_2",
              "trainable": true,
              "dtype": {
                "module": "keras",
                "class_name": "DTypePolicy",
                "config": {
                  "name": "float32"
                },
                "registered_name": null
              },
              "axis": -1,
              "momentum": 0.99,
              "epsilon": 0.001,
              "center": true,
              "scale": true,
              "beta_initializer": {
                "module": "keras.initializers",
                "class_name": "Zeros",
                "config": {},
                "registered_name": null
              },
              "gamma_initializer": {
                "module": "keras.initializers",
                "class_name": "Ones",
                "config": {},
                "registered_name": null
              },
              "moving_mean_initializer": {
                "module": "keras.initializers",
                "class_name": "Zeros",
                "config": {},
                "registered_name": null
              },
              "moving_variance_initializer": {
                "module": "keras.initializers",
                "class_name": "Ones",
                "config": {},
                "registered_name": null
              },
              "beta_regularizer": null,
              "gamma_regularizer": null,
              "beta_constraint": null,
              "gamma_constraint": null,
              "synchronized": false
            },
            "name": "batch_normalization_2",
            "inbound_nodes": [
              {
                "args": [
                  {
                    "class_name": "__keras_tensor__",
                    "config": {
                      "shape": [
                        null,
                        512,
                        128
                      ],
                      "dtype": "float32",
                      "keras_history": [
                        "conv1d_2",
                        0,
                        0
                      ]
                    }
                  }
                ],
                "kwargs": {
                  "mask": null
                }
              }
            ]
          },
          {
            "class_name": "ReLU",
            "config": {
              "name": "relu_2",
              "trainable": true,
              "dtype": {
                "module": "keras",
                "class_name": "DTypePolicy",
                "config": {
                  "name": "float32"
                },
                "registered_name": null
              },
              "max_value": null,
              "negative_slope": 0.0,
              "threshold": 0.0
            },
            "name": "relu_2",
            "inbound_nodes": [
              {
                "args": [
                  {
                    "class_name": "__keras_tensor__",
                    "config": {
                      "shape": [
                        null,
                        512,
                        128
                      ],
                      "dtype": "float32",
                      "keras_history": [
                        "batch_normalization_2",
                        0,
                        0
                      ]
                    }
                  }
                ],
                "kwargs": {}
              }
            ]
          },
          {
            "class_name": "Conv1D",
            "config": {
              "name": "conv1d_3",
              "trainable": true,
              "dtype": {
                "module": "keras",
                "class_name": "DTypePolicy",
                "config": {
                  "name": "float32"
                },
                "registered_name": null
              },
              "filters": 128,
              "kernel_size": [
                7
              ],
              "strides": [
                1
              ],
              "padding": "same",
              "data_format": "channels_last",
              "dilation_rate": [
                1
              ],
              "groups": 1,
              "activation": "linear",
              "use_bias": true,
              "kernel_initializer": {
                "module": "keras.initializers",
                "class_name": "GlorotUniform",
                "config": {
                  "seed": null
                },
                "registered_name": null
              },
              "bias_initializer": {
                "module": "keras.initializers",
                "class_name": "Zeros",
                "config": {},
                "registered_name": null
              },
              "kernel_regularizer": null,
              "bias_regularizer": null,
              "activity_regularizer": null,
              "kernel_constraint": null,
              "bias_constraint": null
            },
            "name": "conv1d_3",
            "inbound_nodes": [
              {
                "args": [
                  {
                    "class_name": "__keras_tensor__",
                    "config": {
                      "shape": [
                        null,
                        512,
                        128
                      ],
                      "dtype": "float32",
                      "keras_history": [
                        "relu_2",
                        0,
                        0
                      ]
                    }
                  }
                ],
                "kwargs": {}
              }
            ]
          },
          {
            "class_name": "BatchNormalization",
            "config": {
              "name": "batch_normalization_3",
              "trainable": true,
              "dtype": {
                "module": "keras",
                "class_name": "DTypePolicy",
                "config": {
                  "name": "float32"
                },
                "registered_name": null
              },
              "axis": -1,
              "momentum": 0.99,
              "epsilon": 0.001,
              "center": true,
              "scale": true,
              "beta_initializer": {
                "module": "keras.initializers",
                "class_name": "Zeros",
                "config": {},
                "registered_name": null
              },
              "gamma_initializer": {
                "module": "keras.initializers",
                "class_name": "Ones",
                "config": {},
                "registered_name": null
              },
              "moving_mean_initializer": {
                "module": "keras.initializers",
                "class_name": "Zeros",
                "config": {},
                "registered_name": null
              },
              "moving_variance_initializer": {
                "module": "keras.initializers",
                "class_name": "Ones",
                "config": {},
                "registered_name": null
              },
              "beta_regularizer": null,
              "gamma_regularizer": null,
              "beta_constraint": null,
              "gamma_constraint": null,
              "synchronized": false
            },
            "name": "batch_normalization_3",
            "inbound_nodes": [
              {
                "args": [
                  {
                    "class_name": "__keras_tensor__",
                    "config": {
                      "shape": [
                        null,
                        512,
                        128
                      ],
                      "dtype": "float32",
                      "keras_history": [
                        "conv1d_3",
                        0,
                        0
                      ]
                    }
                  }
                ],
                "kwargs": {
                  "mask": null
                }
              }
            ]
          },
          {
            "class_name": "GlobalAveragePooling1D",
            "config": {
              "name": "global_average_pooling1d_se_1",
              "trainable": true,
              "dtype": {
                "module": "keras",
                "class_name": "DTypePolicy",
                "config": {
                  "name": "float32"
                },
                "registered_name": null
              },
              "data_format": "channels_last",
              "keepdims": false
            },
            "name": "global_average_pooling1d_se_1",
            "inbound_nodes": [
              {
                "args": [
                  {
                    "class_name": "__keras_tensor__",
                    "config": {
                      "shape": [
                        null,
                        512,
                        128
                      ],
                      "dtype": "float32",
                      "keras_history": [
                        "batch_normalization_3",
                        0,
                        0
                      ]
                    }
                  }
                ],
                "kwargs": {
                  "mask": null
                }
              }
            ]
          },
          {
            "class_name": "Dense",
            "config": {
              "name": "dense_se_1_1",
              "trainable": true,
              "dtype": {
                "module": "keras",
                "class_name": "DTypePolicy",
                "config": {
                  "name": "float32"
                },
                "registered_name": null
              },
              "units": 8,
              "activation": "relu",
              "use_bias": true,
              "kernel_initializer": {
                "module": "keras.initializers",
                "class_name": "GlorotUniform",
                "config": {
                  "seed": null
                },
                "registered_name": null
              },
              "bias_initializer": {
                "module": "keras.initializers",
                "class_name": "Zeros",
                "config": {},
                "registered_name": null
              },
              "kernel_regularizer": null,
              "bias_regularizer": null,
              "kernel_constraint": null,
              "bias_constraint": null
            },
            "name": "dense_se_1_1",
            "inbound_nodes": [
              {
                "args": [
                  {
                    "class_name": "__keras_tensor__",
                    "config": {
                      "shape": [
                        null,
                        128
                      ],
                      "dtype": "float32",
                      "keras_history": [
                        "global_average_pooling1d_se_1",
                        0,
                        0
                      ]
                    }
                  }
                ],
                "kwargs": {}
              }
            ]
          },
          {
            "class_name": "Dense",
            "config": {
              "name": "dense_se_2_1",
              "trainable": true,
              "dtype": {
                "module": "keras",
                "class_name": "DTypePolicy",
                "config": {
                  "name": "float32"
                },
                "registered_name": null
              },
              "units": 128,
              "activation": "sigmoid",
              "use_bias": true,
              "kernel_initializer": {
                "module": "keras.initializers",
                "class_name": "GlorotUniform",
                "config": {
                  "seed": null
                },
                "registered_name": null
              },
              "bias_initializer": {
                "module": "keras.initializers",
                "class_name": "Zeros",
                "config": {},
                "registered_name": null
              },
              "kernel_regularizer": null,
              "bias_regularizer": null,
              "kernel_constraint": null,
              "bias_constraint": null
            },
            "name": "dense_se_2_1",
            "inbound_nodes": [
              {
                "args": [
                  {
                    "class_name": "__keras_tensor__",
                    "config": {
                      "shape": [
                        null,
                        8
                      ],
                      "dtype": "float32",
                      "keras_history": [
                        "dense_se_1_1",
                        0,
                        0
                      ]
                    }
                  }
                ],
                "kwargs": {}
              }
            ]
          },
          {
            "class_name": "Reshape",
            "config": {
              "name": "reshape_se_1",
              "trainable": true,
              "dtype": {
                "module": "keras",
                "class_name": "DTypePolicy",
                "config": {
                  "name": "float32"
                },
                "registered_name": null
              },
              "target_shape": [
                1,
                128
              ]
            },
            "name": "reshape_se_1",
            "inbound_nodes": [
              {
                "args": [
                  {
                    "class_name": "__keras_tensor__",
                    "config": {
                      "shape": [
                        null,
                        128
                      ],
                      "dtype": "float32",
                      "keras_history": [
                        "dense_se_2_1",
                        0,
                        0
                      ]
                    }
                  }
                ],
                "kwargs": {}
              }
            ]
          },
          {
            "class_name": "Multiply",
            "config": {
              "name": "multiply_se_1",
              "trainable": true,
              "dtype": {
                "module": "keras",
                "class_name": "DTypePolicy",
                "config": {
                  "name": "float32"
                },
                "registered_name": null
              }
            },
            "name": "multiply_se_1",
            "inbound_nodes": [
              {
                "args": [
                  [
                    {
                      "class_name": "__keras_tensor__",
                      "config": {
                        "shape": [
                          null,
                          512,
                          128
                        ],
                        "dtype": "float32",
                        "keras_history": [
                          "batch_normalization_3",
                          0,
                          0
                        ]
                      }
                    },
                    {
                      "class_name": "__keras_tensor__",
                      "config": {
                        "shape": [
                          null,
                          1,
                          128
                        ],
                        "dtype": "float32",
                        "keras_history": [
                          "reshape_se_1",
                          0,
                          0
                        ]
                      }
                    }
                  ]
                ],
                "kwargs": {}
              }
            ]
          },
          {
            "class_name": "Conv1D",
            "config": {
              "name": "conv1d_res_1",
              "trainable": true,
              "dtype": {
                "module": "keras",
                "class_name": "DTypePolicy",
                "config": {
                  "name": "float32"
                },
                "registered_name": null
              },
              "filters": 128,
              "kernel_size": [
                1
              ],
              "strides": [
                1
              ],
              "padding": "same",
              "data_format": "channels_last",
              "dilation_rate": [
                1
              ],
              "groups": 1,
              "activation": "linear",
              "use_bias": true,
              "kernel_initializer": {
                "module": "keras.initializers",
                "class_name": "GlorotUniform",
                "config": {
                  "seed": null
                },
                "registered_name": null
              },
              "bias_initializer": {
                "module": "keras.initializers",
                "class_name": "Zeros",
                "config": {},
                "registered_name": null
              },
              "kernel_regularizer": null,
              "bias_regularizer": null,
              "activity_regularizer": null,
              "kernel_constraint": null,
              "bias_constraint": null
            },
            "name": "conv1d_res_1",
            "inbound_nodes": [
              {
                "args": [
                  {
                    "class_name": "__keras_tensor__",
                    "config": {
                      "shape": [
                        null,
                        512,
                        64
                      ],
                      "dtype": "float32",
                      "keras_history": [
                        "max_pooling1d_0",
                        0,
                        0
                      ]
                    }
                  }
                ],
                "kwargs": {}
              }
            ]
          },
          {
            "class_name": "Add",
            "config": {
              "name": "add_1",
              "trainable": true,
              "dtype": {
                "module": "keras",
                "class_name": "DTypePolicy",
                "config": {
                  "name": "float32"
                },
                "registered_name": null
              }
            },
            "name": "add_1",
            "inbound_nodes": [
              {
                "args": [
                  [
                    {
                      "class_name": "__keras_tensor__",
                      "config": {
                        "shape": [
                          null,
                          512,
                          128
                        ],
                        "dtype": "float32",
                        "keras_history": [
                          "multiply_se_1",
                          0,
                          0
                        ]
                      }
                    },
                    {
                      "class_name": "__keras_tensor__",
                      "config": {
                        "shape": [
                          null,
                          512,
                          128
                        ],
                        "dtype": "float32",
                        "keras_history": [
                          "conv1d_res_1",
                          0,
                          0
                        ]
                      }
                    }
                  ]
                ],
                "kwargs": {}
              }
            ]
          },
          {
            "class_name": "ReLU",
            "config": {
              "name": "relu_add_1",
              "trainable": true,
              "dtype": {
                "module": "keras",
                "class_name": "DTypePolicy",
                "config": {
                  "name": "float32"
                },
                "registered_name": null
              },
              "max_value": null,
              "negative_slope": 0.0,
              "threshold": 0.0
            },
            "name": "relu_add_1",
            "inbound_nodes": [
              {
                "args": [
                  {
                    "class_name": "__keras_tensor__",
                    "config": {
                      "shape": [
                        null,
                        512,
                        128
                      ],
                      "dtype": "float32",
                      "keras_history": [
                        "add_1",
                        0,
                        0
                      ]
                    }
                  }
                ],
                "kwargs": {}
              }
            ]
          },
          {
            "class_name": "MaxPooling1D",
            "config": {
              "name": "max_pooling1d_1",
              "trainable": true,
              "dtype": {
                "module": "keras",
                "class_name": "DTypePolicy",
                "config": {
                  "name": "float32"
                },
                "registered_name": null
              },
              "pool_size": [
                2
              ],
              "padding": "valid",
              "strides": [
                2
              ],
              "data_format": "channels_last"
            },
            "name": "max_pooling1d_1",
            "inbound_nodes": [
              {
                "args": [
                  {
                    "class_name": "__keras_tensor__",
                    "config": {
                      "shape": [
                        null,
                        512,
                        128
                      ],
                      "dtype": "float32",
                      "keras_history": [
                        "relu_add_1",
                        0,
                        0
                      ]
                    }
                  }
                ],
                "kwargs": {}
              }
            ]
          },
          {
            "class_name": "Conv1D",
            "config": {
              "name": "conv1d_4",
              "trainable": true,
              "dtype": {
                "module": "keras",
                "class_name": "DTypePolicy",
                "config": {
                  "name": "float32"
                },
                "registered_name": null
              },
              "filters": 256,
              "kernel_size": [
                7
              ],
              "strides": [
                1
              ],
              "padding": "same",
              "data_format": "channels_last",
              "dilation_rate": [
                1
              ],
              "groups": 1,
              "activation": "linear",
              "use_bias": true,
              "kernel_initializer": {
                "module": "keras.initializers",
                "class_name": "GlorotUniform",
                "config": {
                  "seed": null
                },
                "registered_name": null
              },
              "bias_initializer": {
                "module": "keras.initializers",
                "class_name": "Zeros",
                "config": {},
                "registered_name": null
              },
              "kernel_regularizer": null,
              "bias_regularizer": null,
              "activity_regularizer": null,
              "kernel_constraint": null,
              "bias_constraint": null
            },
            "name": "conv1d_4",
            "inbound_nodes": [
              {
                "args": [
                  {
                    "class_name": "__keras_tensor__",
                    "config": {
                      "shape": [
                        null,
                        256,
                        128
                      ],
                      "dtype": "float32",
                      "keras_history": [
                        "max_pooling1d_1",
                        0,
                        0
                      ]
                    }
                  }
                ],
                "kwargs": {}
              }
            ]
          },
          {
            "class_name": "BatchNormalization",
            "config": {
              "name": "batch_normalization_4",
              "trainable": true,
              "dtype": {
                "module": "keras",
                "class_name": "DTypePolicy",
                "config": {
                  "name": "float32"
                },
                "registered_name": null
              },
              "axis": -1,
              "momentum": 0.99,
              "epsilon": 0.001,
              "center": true,
              "scale": true,
              "beta_initializer": {
                "module": "keras.initializers",
                "class_name": "Zeros",
                "config": {},
                "registered_name": null
              },
              "gamma_initializer": {
                "module": "keras.initializers",
                "class_name": "Ones",
                "config": {},
                "registered_name": null
              },
              "moving_mean_initializer": {
                "module": "keras.initializers",
                "class_name": "Zeros",
                "config": {},
                "registered_name": null
              },
              "moving_variance_initializer": {
                "module": "keras.initializers",
                "class_name": "Ones",
                "config": {},
                "registered_name": null
              },
              "beta_regularizer": null,
              "gamma_regularizer": null,
              "beta_constraint": null,
              "gamma_constraint": null,
              "synchronized": false
            },
            "name": "batch_normalization_4",
            "inbound_nodes": [
              {
                "args": [
                  {
                    "class_name": "__keras_tensor__",
                    "config": {
                      "shape": [
                        null,
                        256,
                        256
                      ],
                      "dtype": "float32",
                      "keras_history": [
                        "conv1d_4",
                        0,
                        0
                      ]
                    }
                  }
                ],
                "kwargs": {
                  "mask": null
                }
              }
            ]
          },
          {
            "class_name": "ReLU",
            "config": {
              "name": "relu_4",
              "trainable": true,
              "dtype": {
                "module": "keras",
                "class_name": "DTypePolicy",
                "config": {
                  "name": "float32"
                },
                "registered_name": null
              },
              "max_value": null,
              "negative_slope": 0.0,
              "threshold": 0.0
            },
            "name": "relu_4",
            "inbound_nodes": [
              {
                "args": [
                  {
                    "class_name": "__keras_tensor__",
                    "config": {
                      "shape": [
                        null,
                        256,
                        256
                      ],
                      "dtype": "float32",
                      "keras_history": [
                        "batch_normalization_4",
                        0,
                        0
                      ]
                    }
                  }
                ],
                "kwargs": {}
              }
            ]
          },
          {
            "class_name": "Conv1D",
            "config": {
              "name": "conv1d_5",
              "trainable": true,
              "dtype": {
                "module": "keras",
                "class_name": "DTypePolicy",
                "config": {
                  "name": "float32"
                },
                "registered_name": null
              },
              "filters": 256,
              "kernel_size": [
                7
              ],
              "strides": [
                1
              ],
              "padding": "same",
              "data_format": "channels_last",
              "dilation_rate": [
                1
              ],
              "groups": 1,
              "activation": "linear",
              "use_bias": true,
              "kernel_initializer": {
                "module": "keras.initializers",
                "class_name": "GlorotUniform",
                "config": {
                  "seed": null
                },
                "registered_name": null
              },
              "bias_initializer": {
                "module": "keras.initializers",
                "class_name": "Zeros",
                "config": {},
                "registered_name": null
              },
              "kernel_regularizer": null,
              "bias_regularizer": null,
              "activity_regularizer": null,
              "kernel_constraint": null,
              "bias_constraint": null
            },
            "name": "conv1d_5",
            "inbound_nodes": [
              {
                "args": [
                  {
                    "class_name": "__keras_tensor__",
                    "config": {
                      "shape": [
                        null,
                        256,
                        256
                      ],
                      "dtype": "float32",
                      "keras_history": [
                        "relu_4",
                        0,
                        0
                      ]
                    }
                  }
                ],
                "kwargs": {}
              }
            ]
          },
          {
            "class_name": "BatchNormalization",
            "config": {
              "name": "batch_normalization_5",
              "trainable": true,
              "dtype": {
                "module": "keras",
                "class_name": "DTypePolicy",
                "config": {
                  "name": "float32"
                },
                "registered_name": null
              },
              "axis": -1,
              "momentum": 0.99,
              "epsilon": 0.001,
              "center": true,
              "scale": true,
              "beta_initializer": {
                "module": "keras.initializers",
                "class_name": "Zeros",
                "config": {},
                "registered_name": null
              },
              "gamma_initializer": {
                "module": "keras.initializers",
                "class_name": "Ones",
                "config": {},
                "registered_name": null
              },
              "moving_mean_initializer": {
                "module": "keras.initializers",
                "class_name": "Zeros",
                "config": {},
                "registered_name": null
              },
              "moving_variance_initializer": {
                "module": "keras.initializers",
                "class_name": "Ones",
                "config": {},
                "registered_name": null
              },
              "beta_regularizer": null,
              "gamma_regularizer": null,
              "beta_constraint": null,
              "gamma_constraint": null,
              "synchronized": false
            },
            "name": "batch_normalization_5",
            "inbound_nodes": [
              {
                "args": [
                  {
                    "class_name": "__keras_tensor__",
                    "config": {
                      "shape": [
                        null,
                        256,
                        256
                      ],
                      "dtype": "float32",
                      "keras_history": [
                        "conv1d_5",
                        0,
                        0
                      ]
                    }
                  }
                ],
                "kwargs": {
                  "mask": null
                }
              }
            ]
          },
          {
            "class_name": "GlobalAveragePooling1D",
            "config": {
              "name": "global_average_pooling1d_se_2",
              "trainable": true,
              "dtype": {
                "module": "keras",
                "class_name": "DTypePolicy",
                "config": {
                  "name": "float32"
                },
                "registered_name": null
              },
              "data_format": "channels_last",
              "keepdims": false
            },
            "name": "global_average_pooling1d_se_2",
            "inbound_nodes": [
              {
                "args": [
                  {
                    "class_name": "__keras_tensor__",
                    "config": {
                      "shape": [
                        null,
                        256,
                        256
                      ],
                      "dtype": "float32",
                      "keras_history": [
                        "batch_normalization_5",
                        0,
                        0
                      ]
                    }
                  }
                ],
                "kwargs": {
                  "mask": null
                }
              }
            ]
          },
          {
            "class_name": "Dense",
            "config": {
              "name": "dense_se_1_2",
              "trainable": true,
              "dtype": {
                "module": "keras",
                "class_name": "DTypePolicy",
                "config": {
                  "name": "float32"
                },
                "registered_name": null
              },
              "units": 16,
              "activation": "relu",
              "use_bias": true,
              "kernel_initializer": {
                "module": "keras.initializers",
                "class_name": "GlorotUniform",
                "config": {
                  "seed": null
                },
                "registered_name": null
              },
              "bias_initializer": {
                "module": "keras.initializers",
                "class_name": "Zeros",
                "config": {},
                "registered_name": null
              },
              "kernel_regularizer": null,
              "bias_regularizer": null,
              "kernel_constraint": null,
              "bias_constraint": null
            },
            "name": "dense_se_1_2",
            "inbound_nodes": [
              {
                "args": [
                  {
                    "class_name": "__keras_tensor__",
                    "config": {
                      "shape": [
                        null,
                        256
                      ],
                      "dtype": "float32",
                      "keras_history": [
                        "global_average_pooling1d_se_2",
                        0,
                        0
                      ]
                    }
                  }
                ],
                "kwargs": {}
              }
            ]
          },
          {
            "class_name": "Dense",
            "config": {
              "name": "dense_se_2_2",
              "trainable": true,
              "dtype": {
                "module": "keras",
                "class_name": "DTypePolicy",
                "config": {
                  "name": "float32"
                },
                "registered_name": null
              },
              "units": 256,
              "activation": "sigmoid",
              "use_bias": true,
              "kernel_initializer": {
                "module": "keras.initializers",
                "class_name": "GlorotUniform",
                "config": {
                  "seed": null
                },
                "registered_name": null
              },
              "bias_initializer": {
                "module": "keras.initializers",
                "class_name": "Zeros",
                "config": {},
                "registered_name": null
              },
              "kernel_regularizer": null,
              "bias_regularizer": null,
              "kernel_constraint": null,
              "bias_constraint": null
            },
            "name": "dense_se_2_2",
            "inbound_nodes": [
              {
                "args": [
                  {
                    "class_name": "__keras_tensor__",
                    "config": {
                      "shape": [
                        null,
                        16
                      ],
                      "dtype": "float32",
                      "keras_history": [
                        "dense_se_1_2",
                        0,
                        0
                      ]
                    }
                  }
                ],
                "kwargs": {}
              }
            ]
          },
          {
            "class_name": "Reshape",
            "config": {
              "name": "reshape_se_2",
              "trainable": true,
              "dtype": {
                "module": "keras",
                "class_name": "DTypePolicy",
                "config": {
                  "name": "float32"
                },
                "registered_name": null
              },
              "target_shape": [
                1,
                256
              ]
            },
            "name": "reshape_se_2",
            "inbound_nodes": [
              {
                "args": [
                  {
                    "class_name": "__keras_tensor__",
                    "config": {
                      "shape": [
                        null,
                        256
                      ],
                      "dtype": "float32",
                      "keras_history": [
                        "dense_se_2_2",
                        0,
                        0
                      ]
                    }
                  }
                ],
                "kwargs": {}
              }
            ]
          },
          {
            "class_name": "Multiply",
            "config": {
              "name": "multiply_se_2",
              "trainable": true,
              "dtype": {
                "module": "keras",
                "class_name": "DTypePolicy",
                "config": {
                  "name": "float32"
                },
                "registered_name": null
              }
            },
            "name": "multiply_se_2",
            "inbound_nodes": [
              {
                "args": [
                  [
                    {
                      "class_name": "__keras_tensor__",
                      "config": {
                        "shape": [
                          null,
                          256,
                          256
                        ],
                        "dtype": "float32",
                        "keras_history": [
                          "batch_normalization_5",
                          0,
                          0
                        ]
                      }
                    },
                    {
                      "class_name": "__keras_tensor__",
                      "config": {
                        "shape": [
                          null,
                          1,
                          256
                        ],
                        "dtype": "float32",
                        "keras_history": [
                          "reshape_se_2",
                          0,
                          0
                        ]
                      }
                    }
                  ]
                ],
                "kwargs": {}
              }
            ]
          },
          {
            "class_name": "Conv1D",
            "config": {
              "name": "conv1d_res_2",
              "trainable": true,
              "dtype": {
                "module": "keras",
                "class_name": "DTypePolicy",
                "config": {
                  "name": "float32"
                },
                "registered_name": null
              },
              "filters": 256,
              "kernel_size": [
                1
              ],
              "strides": [
                1
              ],
              "padding": "same",
              "data_format": "channels_last",
              "dilation_rate": [
                1
              ],
              "groups": 1,
              "activation": "linear",
              "use_bias": true,
              "kernel_initializer": {
                "module": "keras.initializers",
                "class_name": "GlorotUniform",
                "config": {
                  "seed": null
                },
                "registered_name": null
              },
              "bias_initializer": {
                "module": "keras.initializers",
                "class_name": "Zeros",
                "config": {},
                "registered_name": null
              },
              "kernel_regularizer": null,
              "bias_regularizer": null,
              "activity_regularizer": null,
              "kernel_constraint": null,
              "bias_constraint": null
            },
            "name": "conv1d_res_2",
            "inbound_nodes": [
              {
                "args": [
                  {
                    "class_name": "__keras_tensor__",
                    "config": {
                      "shape": [
                        null,
                        256,
                        128
                      ],
                      "dtype": "float32",
                      "keras_history": [
                        "max_pooling1d_1",
                        0,
                        0
                      ]
                    }
                  }
                ],
                "kwargs": {}
              }
            ]
          },
          {
            "class_name": "Add",
            "config": {
              "name": "add_2",
              "trainable": true,
              "dtype": {
                "module": "keras",
                "class_name": "DTypePolicy",
                "config": {
                  "name": "float32"
                },
                "registered_name": null
              }
            },
            "name": "add_2",
            "inbound_nodes": [
              {
                "args": [
                  [
                    {
                      "class_name": "__keras_tensor__",
                      "config": {
                        "shape": [
                          null,
                          256,
                          256
                        ],
                        "dtype": "float32",
                        "keras_history": [
                          "multiply_se_2",
                          0,
                          0
                        ]
                      }
                    },
                    {
                      "class_name": "__keras_tensor__",
                      "config": {
                        "shape": [
                          null,
                          256,
                          256
                        ],
                        "dtype": "float32",
                        "keras_history": [
                          "conv1d_res_2",
                          0,
                          0
                        ]
                      }
                    }
                  ]
                ],
                "kwargs": {}
              }
            ]
          },
          {
            "class_name": "ReLU",
            "config": {
              "name": "relu_add_2",
              "trainable": true,
              "dtype": {
                "module": "keras",
                "class_name": "DTypePolicy",
                "config": {
                  "name": "float32"
                },
                "registered_name": null
              },
              "max_value": null,
              "negative_slope": 0.0,
              "threshold": 0.0
            },
            "name": "relu_add_2",
            "inbound_nodes": [
              {
                "args": [
                  {
                    "class_name": "__keras_tensor__",
                    "config": {
                      "shape": [
                        null,
                        256,
                        256
                      ],
                      "dtype": "float32",
                      "keras_history": [
                        "add_2",
                        0,
                        0
                      ]
                    }
                  }
                ],
                "kwargs": {}
              }
            ]
          },
          {
            "class_name": "MaxPooling1D",
            "config": {
              "name": "max_pooling1d_2",
              "trainable": true,
              "dtype": {
                "module": "keras",
                "class_name": "DTypePolicy",
                "config": {
                  "name": "float32"
                },
                "registered_name": null
              },
              "pool_size": [
                2
              ],
              "padding": "valid",
              "strides": [
                2
              ],
              "data_format": "channels_last"
            },
            "name": "max_pooling1d_2",
            "inbound_nodes": [
              {
                "args": [
                  {
                    "class_name": "__keras_tensor__",
                    "config": {
                      "shape": [
                        null,
                        256,
                        256
                      ],
                      "dtype": "float32",
                      "keras_history": [
                        "relu_add_2",
                        0,
                        0
                      ]
                    }
                  }
                ],
                "kwargs": {}
              }
            ]
          },
          {
            "class_name": "Conv1D",
            "config": {
              "name": "conv1d_6",
              "trainable": true,
              "dtype": {
                "module": "keras",
                "class_name": "DTypePolicy",
                "config": {
                  "name": "float32"
                },
                "registered_name": null
              },
              "filters": 512,
              "kernel_size": [
                7
              ],
              "strides": [
                1
              ],
              "padding": "same",
              "data_format": "channels_last",
              "dilation_rate": [
                1
              ],
              "groups": 1,
              "activation": "linear",
              "use_bias": true,
              "kernel_initializer": {
                "module": "keras.initializers",
                "class_name": "GlorotUniform",
                "config": {
                  "seed": null
                },
                "registered_name": null
              },
              "bias_initializer": {
                "module": "keras.initializers",
                "class_name": "Zeros",
                "config": {},
                "registered_name": null
              },
              "kernel_regularizer": null,
              "bias_regularizer": null,
              "activity_regularizer": null,
              "kernel_constraint": null,
              "bias_constraint": null
            },
            "name": "conv1d_6",
            "inbound_nodes": [
              {
                "args": [
                  {
                    "class_name": "__keras_tensor__",
                    "config": {
                      "shape": [
                        null,
                        128,
                        256
                      ],
                      "dtype": "float32",
                      "keras_history": [
                        "max_pooling1d_2",
                        0,
                        0
                      ]
                    }
                  }
                ],
                "kwargs": {}
              }
            ]
          },
          {
            "class_name": "BatchNormalization",
            "config": {
              "name": "batch_normalization_6",
              "trainable": true,
              "dtype": {
                "module": "keras",
                "class_name": "DTypePolicy",
                "config": {
                  "name": "float32"
                },
                "registered_name": null
              },
              "axis": -1,
              "momentum": 0.99,
              "epsilon": 0.001,
              "center": true,
              "scale": true,
              "beta_initializer": {
                "module": "keras.initializers",
                "class_name": "Zeros",
                "config": {},
                "registered_name": null
              },
              "gamma_initializer": {
                "module": "keras.initializers",
                "class_name": "Ones",
                "config": {},
                "registered_name": null
              },
              "moving_mean_initializer": {
                "module": "keras.initializers",
                "class_name": "Zeros",
                "config": {},
                "registered_name": null
              },
              "moving_variance_initializer": {
                "module": "keras.initializers",
                "class_name": "Ones",
                "config": {},
                "registered_name": null
              },
              "beta_regularizer": null,
              "gamma_regularizer": null,
              "beta_constraint": null,
              "gamma_constraint": null,
              "synchronized": false
            },
            "name": "batch_normalization_6",
            "inbound_nodes": [
              {
                "args": [
                  {
                    "class_name": "__keras_tensor__",
                    "config": {
                      "shape": [
                        null,
                        128,
                        512
                      ],
                      "dtype": "float32",
                      "keras_history": [
                        "conv1d_6",
                        0,
                        0
                      ]
                    }
                  }
                ],
                "kwargs": {
                  "mask": null
                }
              }
            ]
          },
          {
            "class_name": "ReLU",
            "config": {
              "name": "relu_6",
              "trainable": true,
              "dtype": {
                "module": "keras",
                "class_name": "DTypePolicy",
                "config": {
                  "name": "float32"
                },
                "registered_name": null
              },
              "max_value": null,
              "negative_slope": 0.0,
              "threshold": 0.0
            },
            "name": "relu_6",
            "inbound_nodes": [
              {
                "args": [
                  {
                    "class_name": "__keras_tensor__",
                    "config": {
                      "shape": [
                        null,
                        128,
                        512
                      ],
                      "dtype": "float32",
                      "keras_history": [
                        "batch_normalization_6",
                        0,
                        0
                      ]
                    }
                  }
                ],
                "kwargs": {}
              }
            ]
          },
          {
            "class_name": "Conv1D",
            "config": {
              "name": "conv1d_7",
              "trainable": true,
              "dtype": {
                "module": "keras",
                "class_name": "DTypePolicy",
                "config": {
                  "name": "float32"
                },
                "registered_name": null
              },
              "filters": 512,
              "kernel_size": [
                7
              ],
              "strides": [
                1
              ],
              "padding": "same",
              "data_format": "channels_last",
              "dilation_rate": [
                1
              ],
              "groups": 1,
              "activation": "linear",
              "use_bias": true,
              "kernel_initializer": {
                "module": "keras.initializers",
                "class_name": "GlorotUniform",
                "config": {
                  "seed": null
                },
                "registered_name": null
              },
              "bias_initializer": {
                "module": "keras.initializers",
                "class_name": "Zeros",
                "config": {},
                "registered_name": null
              },
              "kernel_regularizer": null,
              "bias_regularizer": null,
              "activity_regularizer": null,
              "kernel_constraint": null,
              "bias_constraint": null
            },
            "name": "conv1d_7",
            "inbound_nodes": [
              {
                "args": [
                  {
                    "class_name": "__keras_tensor__",
                    "config": {
                      "shape": [
                        null,
                        128,
                        512
                      ],
                      "dtype": "float32",
                      "keras_history": [
                        "relu_6",
                        0,
                        0
                      ]
                    }
                  }
                ],
                "kwargs": {}
              }
            ]
          },
          {
            "class_name": "BatchNormalization",
            "config": {
              "name": "batch_normalization_7",
              "trainable": true,
              "dtype": {
                "module": "keras",
                "class_name": "DTypePolicy",
                "config": {
                  "name": "float32"
                },
                "registered_name": null
              },
              "axis": -1,
              "momentum": 0.99,
              "epsilon": 0.001,
              "center": true,
              "scale": true,
              "beta_initializer": {
                "module": "keras.initializers",
                "class_name": "Zeros",
                "config": {},
                "registered_name": null
              },
              "gamma_initializer": {
                "module": "keras.initializers",
                "class_name": "Ones",
                "config": {},
                "registered_name": null
              },
              "moving_mean_initializer": {
                "module": "keras.initializers",
                "class_name": "Zeros",
                "config": {},
                "registered_name": null
              },
              "moving_variance_initializer": {
                "module": "keras.initializers",
                "class_name": "Ones",
                "config": {},
                "registered_name": null
              },
              "beta_regularizer": null,
              "gamma_regularizer": null,
              "beta_constraint": null,
              "gamma_constraint": null,
              "synchronized": false
            },
            "name": "batch_normalization_7",
            "inbound_nodes": [
              {
                "args": [
                  {
                    "class_name": "__keras_tensor__",
                    "config": {
                      "shape": [
                        null,
                        128,
                        512
                      ],
                      "dtype": "float32",
                      "keras_history": [
                        "conv1d_7",
                        0,
                        0
                      ]
                    }
                  }
                ],
                "kwargs": {
                  "mask": null
                }
              }
            ]
          },
          {
            "class_name": "GlobalAveragePooling1D",
            "config": {
              "name": "global_average_pooling1d_se_3",
              "trainable": true,
              "dtype": {
                "module": "keras",
                "class_name": "DTypePolicy",
                "config": {
                  "name": "float32"
                },
                "registered_name": null
              },
              "data_format": "channels_last",
              "keepdims": false
            },
            "name": "global_average_pooling1d_se_3",
            "inbound_nodes": [
              {
                "args": [
                  {
                    "class_name": "__keras_tensor__",
                    "config": {
                      "shape": [
                        null,
                        128,
                        512
                      ],
                      "dtype": "float32",
                      "keras_history": [
                        "batch_normalization_7",
                        0,
                        0
                      ]
                    }
                  }
                ],
                "kwargs": {
                  "mask": null
                }
              }
            ]
          },
          {
            "class_name": "Dense",
            "config": {
              "name": "dense_se_1_3",
              "trainable": true,
              "dtype": {
                "module": "keras",
                "class_name": "DTypePolicy",
                "config": {
                  "name": "float32"
                },
                "registered_name": null
              },
              "units": 32,
              "activation": "relu",
              "use_bias": true,
              "kernel_initializer": {
                "module": "keras.initializers",
                "class_name": "GlorotUniform",
                "config": {
                  "seed": null
                },
                "registered_name": null
              },
              "bias_initializer": {
                "module": "keras.initializers",
                "class_name": "Zeros",
                "config": {},
                "registered_name": null
              },
              "kernel_regularizer": null,
              "bias_regularizer": null,
              "kernel_constraint": null,
              "bias_constraint": null
            },
            "name": "dense_se_1_3",
            "inbound_nodes": [
              {
                "args": [
                  {
                    "class_name": "__keras_tensor__",
                    "config": {
                      "shape": [
                        null,
                        512
                      ],
                      "dtype": "float32",
                      "keras_history": [
                        "global_average_pooling1d_se_3",
                        0,
                        0
                      ]
                    }
                  }
                ],
                "kwargs": {}
              }
            ]
          },
          {
            "class_name": "Dense",
            "config": {
              "name": "dense_se_2_3",
              "trainable": true,
              "dtype": {
                "module": "keras",
                "class_name": "DTypePolicy",
                "config": {
                  "name": "float32"
                },
                "registered_name": null
              },
              "units": 512,
              "activation": "sigmoid",
              "use_bias": true,
              "kernel_initializer": {
                "module": "keras.initializers",
                "class_name": "GlorotUniform",
                "config": {
                  "seed": null
                },
                "registered_name": null
              },
              "bias_initializer": {
                "module": "keras.initializers",
                "class_name": "Zeros",
                "config": {},
                "registered_name": null
              },
              "kernel_regularizer": null,
              "bias_regularizer": null,
              "kernel_constraint": null,
              "bias_constraint": null
            },
            "name": "dense_se_2_3",
            "inbound_nodes": [
              {
                "args": [
                  {
                    "class_name": "__keras_tensor__",
                    "config": {
                      "shape": [
                        null,
                        32
                      ],
                      "dtype": "float32",
                      "keras_history": [
                        "dense_se_1_3",
                        0,
                        0
                      ]
                    }
                  }
                ],
                "kwargs": {}
              }
            ]
          },
          {
            "class_name": "Reshape",
            "config": {
              "name": "reshape_se_3",
              "trainable": true,
              "dtype": {
                "module": "keras",
                "class_name": "DTypePolicy",
                "config": {
                  "name": "float32"
                },
                "registered_name": null
              },
              "target_shape": [
                1,
                512
              ]
            },
            "name": "reshape_se_3",
            "inbound_nodes": [
              {
                "args": [
                  {
                    "class_name": "__keras_tensor__",
                    "config": {
                      "shape": [
                        null,
                        512
                      ],
                      "dtype": "float32",
                      "keras_history": [
                        "dense_se_2_3",
                        0,
                        0
                      ]
                    }
                  }
                ],
                "kwargs": {}
              }
            ]
          },
          {
            "class_name": "Multiply",
            "config": {
              "name": "multiply_se_3",
              "trainable": true,
              "dtype": {
                "module": "keras",
                "class_name": "DTypePolicy",
                "config": {
                  "name": "float32"
                },
                "registered_name": null
              }
            },
            "name": "multiply_se_3",
            "inbound_nodes": [
              {
                "args": [
                  [
                    {
                      "class_name": "__keras_tensor__",
                      "config": {
                        "shape": [
                          null,
                          128,
                          512
                        ],
                        "dtype": "float32",
                        "keras_history": [
                          "batch_normalization_7",
                          0,
                          0
                        ]
                      }
                    },
                    {
                      "class_name": "__keras_tensor__",
                      "config": {
                        "shape": [
                          null,
                          1,
                          512
                        ],
                        "dtype": "float32",
                        "keras_history": [
                          "reshape_se_3",
                          0,
                          0
                        ]
                      }
                    }
                  ]
                ],
                "kwargs": {}
              }
            ]
          },
          {
            "class_name": "Conv1D",
            "config": {
              "name": "conv1d_res_3",
              "trainable": true,
              "dtype": {
                "module": "keras",
                "class_name": "DTypePolicy",
                "config": {
                  "name": "float32"
                },
                "registered_name": null
              },
              "filters": 512,
              "kernel_size": [
                1
              ],
              "strides": [
                1
              ],
              "padding": "same",
              "data_format": "channels_last",
              "dilation_rate": [
                1
              ],
              "groups": 1,
              "activation": "linear",
              "use_bias": true,
              "kernel_initializer": {
                "module": "keras.initializers",
                "class_name": "GlorotUniform",
                "config": {
                  "seed": null
                },
                "registered_name": null
              },
              "bias_initializer": {
                "module": "keras.initializers",
                "class_name": "Zeros",
                "config": {},
                "registered_name": null
              },
              "kernel_regularizer": null,
              "bias_regularizer": null,
              "activity_regularizer": null,
              "kernel_constraint": null,
              "bias_constraint": null
            },
            "name": "conv1d_res_3",
            "inbound_nodes": [
              {
                "args": [
                  {
                    "class_name": "__keras_tensor__",
                    "config": {
                      "shape": [
                        null,
                        128,
                        256
                      ],
                      "dtype": "float32",
                      "keras_history": [
                        "max_pooling1d_2",
                        0,
                        0
                      ]
                    }
                  }
                ],
                "kwargs": {}
              }
            ]
          },
          {
            "class_name": "Add",
            "config": {
              "name": "add_3",
              "trainable": true,
              "dtype": {
                "module": "keras",
                "class_name": "DTypePolicy",
                "config": {
                  "name": "float32"
                },
                "registered_name": null
              }
            },
            "name": "add_3",
            "inbound_nodes": [
              {
                "args": [
                  [
                    {
                      "class_name": "__keras_tensor__",
                      "config": {
                        "shape": [
                          null,
                          128,
                          512
                        ],
                        "dtype": "float32",
                        "keras_history": [
                          "multiply_se_3",
                          0,
                          0
                        ]
                      }
                    },
                    {
                      "class_name": "__keras_tensor__",
                      "config": {
                        "shape": [
                          null,
                          128,
                          512
                        ],
                        "dtype": "float32",
                        "keras_history": [
                          "conv1d_res_3",
                          0,
                          0
                        ]
                      }
                    }
                  ]
                ],
                "kwargs": {}
              }
            ]
          },
          {
            "class_name": "InputLayer",
            "config": {
              "batch_input_shape": [
                null,
                20,
                1
              ],
              "dtype": "float32",
              "sparse": false,
              "ragged": false,
              "name": "feature_input"
            },
            "name": "feature_input",
            "inbound_nodes": []
          },
          {
            "class_name": "ReLU",
            "config": {
              "name": "relu_add_3",
              "trainable": true,
              "dtype": {
                "module": "keras",
                "class_name": "DTypePolicy",
                "config": {
                  "name": "float32"
                },
                "registered_name": null
              },
              "max_value": null,
              "negative_slope": 0.0,
              "threshold": 0.0
            },
            "name": "relu_add_3",
            "inbound_nodes": [
              {
                "args": [
                  {
                    "class_name": "__keras_tensor__",
                    "config": {
                      "shape": [
                        null,
                        128,
                        512
                      ],
                      "dtype": "float32",
                      "keras_history": [
                        "add_3",
                        0,
                        0
                      ]
                    }
                  }
                ],
                "kwargs": {}
              }
            ]
          },
          {
            "class_name": "Flatten",
            "config": {
              "name": "flatten_features",
              "trainable": true,
              "dtype": {
                "module": "keras",
                "class_name": "DTypePolicy",
                "config": {
                  "name": "float32"
                },
                "registered_name": null
              },
              "data_format": "channels_last"
            },
            "name": "flatten_features",
            "inbound_nodes": [
              {
                "args": [
                  {
                    "class_name": "__keras_tensor__",
                    "config": {
                      "shape": [
                        null,
                        20,
                        1
                      ],
                      "dtype": "float32",
                      "keras_history": [
                        "feature_input",
                        0,
                        0
                      ]
                    }
                  }
                ],
                "kwargs": {}
              }
            ]
          },
          {
            "class_name": "MaxPooling1D",
            "config": {
              "name": "max_pooling1d_3",
              "trainable": true,
              "dtype": {
                "module": "keras",
                "class_name": "DTypePolicy",
                "config": {
                  "name": "float32"
                },
                "registered_name": null
              },
              "pool_size": [
                2
              ],
              "padding": "valid",
              "strides": [
                2
              ],
              "data_format": "channels_last"
            },
            "name": "max_pooling1d_3",
            "inbound_nodes": [
              {
                "args": [
                  {
                    "class_name": "__keras_tensor__",
                    "config": {
                      "shape": [
                        null,
                        128,
                        512
                      ],
                      "dtype": "float32",
                      "keras_history": [
                        "relu_add_3",
                        0,
                        0
                      ]
                    }
                  }
                ],
                "kwargs": {}
              }
            ]
          },
          {
            "class_name": "Dense",
            "config": {
              "name": "dense_features_1",
              "trainable": true,
              "dtype": {
                "module": "keras",
                "class_name": "DTypePolicy",
                "config": {
                  "name": "float32"
                },
                "registered_name": null
              },
              "units": 128,
              "activation": "relu",
              "use_bias": true,
              "kernel_initializer": {
                "module": "keras.initializers",
                "class_name": "GlorotUniform",
                "config": {
                  "seed": null
                },
                "registered_name": null
              },
              "bias_initializer": {
                "module": "keras.initializers",
                "class_name": "Zeros",
                "config": {},
                "registered_name": null
              },
              "kernel_regularizer": null,
              "bias_regularizer": null,
              "kernel_constraint": null,
              "bias_constraint": null
            },
            "name": "dense_features_1",
            "inbound_nodes": [
              {
                "args": [
                  {
                    "class_name": "__keras_tensor__",
                    "config": {
                      "shape": [
                        null,
                        20
                      ],
                      "dtype": "float32",
                      "keras_history": [
                        "flatten_features",
                        0,
                        0
                      ]
                    }
                  }
                ],
                "kwargs": {}
              }
            ]
          },
          {
            "class_name": "GlobalAveragePooling1D",
            "config": {
              "name": "global_average_pooling1d_signal",
              "trainable": true,
              "dtype": {
                "module": "keras",
                "class_name": "DTypePolicy",
                "config": {
                  "name": "float32"
                },
                "registered_name": null
              },
              "data_format": "channels_last",
              "keepdims": false
            },
            "name": "global_average_pooling1d_signal",
            "inbound_nodes": [
              {
                "args": [
                  {
                    "class_name": "__keras_tensor__",
                    "config": {
                      "shape": [
                        null,
                        64,
                        512
                      ],
                      "dtype": "float32",
                      "keras_history": [
                        "max_pooling1d_3",
                        0,
                        0
                      ]
                    }
                  }
                ],
                "kwargs": {
                  "mask": null
                }
              }
            ]
          },
          {
            "class_name": "Dropout",
            "config": {
              "name": "dropout_features",
              "trainable": true,
              "dtype": {
                "module": "keras",
                "class_name": "DTypePolicy",
                "config": {
                  "name": "float32"
                },
                "registered_name": null
              },
              "rate": 0.3,
              "seed": null,
              "noise_shape": null
            },
            "name": "dropout_features",
            "inbound_nodes": [
              {
                "args": [
                  {
                    "class_name": "__keras_tensor__",
                    "config": {
                      "shape": [
                        null,
                        128
                      ],
                      "dtype": "float32",
                      "keras_history": [
                        "dense_features_1",
                        0,
                        0
                      ]
                    }
                  }
                ],
                "kwargs": {
                  "training": false
                }
              }
            ]
          },
          {
            "class_name": "Concatenate",
            "config": {
              "name": "concatenate_fused",
              "trainable": true,
              "dtype": {
                "module": "keras",
                "class_name": "DTypePolicy",
                "config": {
                  "name": "float32"
                },
                "registered_name": null
              },
              "axis": -1
            },
            "name": "concatenate_fused",
            "inbound_nodes": [
              {
                "args": [
                  [
                    {
                      "class_name": "__keras_tensor__",
                      "config": {
                        "shape": [
                          null,
                          512
                        ],
                        "dtype": "float32",
                        "keras_history": [
                          "global_average_pooling1d_signal",
                          0,
                          0
                        ]
                      }
                    },
                    {
                      "class_name": "__keras_tensor__",
                      "config": {
                        "shape": [
                          null,
                          128
                        ],
                        "dtype": "float32",
                        "keras_history": [
                          "dropout_features",
                          0,
                          0
                        ]
                      }
                    }
                  ]
                ],
                "kwargs": {}
              }
            ]
          },
          {
            "class_name": "Dense",
            "config": {
              "name": "dense_fused_1",
              "trainable": true,
              "dtype": {
                "module": "keras",
                "class_name": "DTypePolicy",
                "config": {
                  "name": "float32"
                },
                "registered_name": null
              },
              "units": 512,
              "activation": "relu",
              "use_bias": true,
              "kernel_initializer": {
                "module": "keras.initializers",
                "class_name": "GlorotUniform",
                "config": {
                  "seed": null
                },
                "registered_name": null
              },
              "bias_initializer": {
                "module": "keras.initializers",
                "class_name": "Zeros",
                "config": {},
                "registered_name": null
              },
              "kernel_regularizer": null,
              "bias_regularizer": null,
              "kernel_constraint": null,
              "bias_constraint": null
            },
            "name": "dense_fused_1",
            "inbound_nodes": [
              {
                "args": [
                  {
                    "class_name": "__keras_tensor__",
                    "config": {
                      "shape": [
                        null,
                        640
                      ],
                      "dtype": "float32",
                      "keras_history": [
                        "concatenate_fused",
                        0,
                        0
                      ]
                    }
                  }
                ],
                "kwargs": {}
              }
            ]
          },
          {
            "class_name": "Dropout",
            "config": {
              "name": "dropout_fused_1",
              "trainable": true,
              "dtype": {
                "module": "keras",
                "class_name": "DTypePolicy",
                "config": {
                  "name": "float32"
                },
                "registered_name": null
              },
              "rate": 0.5,
              "seed": null,
              "noise_shape": null
            },
            "name": "dropout_fused_1",
            "inbound_nodes": [
              {
                "args": [
                  {
                    "class_name": "__keras_tensor__",
                    "config": {
                      "shape": [
                        null,
                        512
                      ],
                      "dtype": "float32",
                      "keras_history": [
                        "dense_fused_1",
                        0,
                        0
                      ]
                    }
                  }
                ],
                "kwargs": {
                  "training": false
                }
              }
            ]
          },
          {
            "class_name": "Dense",
            "config": {
              "name": "dense_fused_2",
              "trainable": true,
              "dtype": {
                "module": "keras",
                "class_name": "DTypePolicy",
                "config": {
                  "name": "float32"
                },
                "registered_name": null
              },
              "units": 256,
              "activation": "relu",
              "use_bias": true,
              "kernel_initializer": {
                "module": "keras.initializers",
                "class_name": "GlorotUniform",
                "config": {
                  "seed": null
                },
                "registered_name": null
              },
              "bias_initializer": {
                "module": "keras.initializers",
                "class_name": "Zeros",
                "config": {},
                "registered_name": null
              },
              "kernel_regularizer": null,
              "bias_regularizer": null,
              "kernel_constraint": null,
              "bias_constraint": null
            },
            "name": "dense_fused_2",
            "inbound_nodes": [
              {
                "args": [
                  {
                    "class_name": "__keras_tensor__",
                    "config": {
                      "shape": [
                        null,
                        512
                      ],
                      "dtype": "float32",
                      "keras_history": [
                        "dropout_fused_1",
                        0,
                        0
                      ]
                    }
                  }
                ],
                "kwargs": {}
              }
            ]
          },
          {
            "class_name": "Dropout",
            "config": {
              "name": "dropout_fused_2",
              "trainable": true,
              "dtype": {
                "module": "keras",
                "class_name": "DTypePolicy",
                "config": {
                  "name": "float32"
                },
                "registered_name": null
              },
              "rate": 0.5,
              "seed": null,
              "noise_shape": null
            },
            "name": "dropout_fused_2",
            "inbound_nodes": [
              {
                "args": [
                  {
                    "class_name": "__keras_tensor__",
                    "config": {
                      "shape": [
                        null,
                        256
                      ],
                      "dtype": "float32",
                      "keras_history": [
                        "dense_fused_2",
                        0,
                        0
                      ]
                    }
                  }
                ],
                "kwargs": {
                  "training": false
                }
              }
            ]
          },
          {
            "class_name": "Dense",
            "config": {
              "name": "raw_embeddings",
              "trainable": true,
              "dtype": {
                "module": "keras",
                "class_name": "DTypePolicy",
                "config": {
                  "name": "float32"
                },
                "registered_name": null
              },
              "units": 256,
              "activation": "linear",
              "use_bias": true,
              "kernel_initializer": {
                "module": "keras.initializers",
                "class_name": "GlorotUniform",
                "config": {
                  "seed": null
                },
                "registered_name": null
              },
              "bias_initializer": {
                "module": "keras.initializers",
                "class_name": "Zeros",
                "config": {},
                "registered_name": null
              },
              "kernel_regularizer": null,
              "bias_regularizer": null,
              "kernel_constraint": null,
              "bias_constraint": null
            },
            "name": "raw_embeddings",
            "inbound_nodes": [
              {
                "args": [
                  {
                    "class_name": "__keras_tensor__",
                    "config": {
                      "shape": [
                        null,
                        256
                      ],
                      "dtype": "float32",
                      "keras_history": [
                        "dropout_fused_2",
                        0,
                        0
                      ]
                    }
                  }
                ],
                "kwargs": {}
              }
            ]
          }
        ],
        "input_layers": [
          [
            "signal_input",
            0,
            0
          ],
          [
            "feature_input",
            0,
            0
          ]
        ],
        "output_layers": [
          [
            "raw_embeddings",
            0,
            0
          ]
        ]
      }
    }
  },
  "weightsManifest": [
    {
      "paths": [
        "group1-shard1of5.bin",
        "group1-shard2of5.bin",
        "group1-shard3of5.bin",
        "group1-shard4of5.bin",
        "group1-shard5of5.bin"
      ],
      "weights": [
        {
          "name": "batch_normalization_0/gamma",
          "shape": [
            64
          ],
          "dtype": "float32"
        },
        {
          "name": "batch_normalization_0/beta",
          "shape": [
            64
          ],
          "dtype": "float32"
        },
        {
          "name": "batch_normalization_0/moving_mean",
          "shape": [
            64
          ],
          "dtype": "float32"
        },
        {
          "name": "batch_normalization_0/moving_variance",
          "shape": [
            64
          ],
          "dtype": "float32"
        },
        {
          "name": "batch_normalization_1/gamma",
          "shape": [
            64
          ],
          "dtype": "float32"
        },
        {
          "name": "batch_normalization_1/beta",
          "shape": [
            64
          ],
          "dtype": "float32"
        },
        {
          "name": "batch_normalization_1/moving_mean",
          "shape": [
            64
          ],
          "dtype": "float32"
        },
        {
          "name": "batch_normalization_1/moving_variance",
          "shape": [
            64
          ],
          "dtype": "float32"
        },
        {
          "name": "batch_normalization_2/gamma",
          "shape": [
            128
          ],
          "dtype": "float32"
        },
        {
          "name": "batch_normalization_2/beta",
          "shape": [
            128
          ],
          "dtype": "float32"
        },
        {
          "name": "batch_normalization_2/moving_mean",
          "shape": [
            128
          ],
          "dtype": "float32"
        },
        {
          "name": "batch_normalization_2/moving_variance",
          "shape": [
            128
          ],
          "dtype": "float32"
        },
        {
          "name": "batch_normalization_3/gamma",
          "shape": [
            128
          ],
          "dtype": "float32"
        },
        {
          "name": "batch_normalization_3/beta",
          "shape": [
            128
          ],
          "dtype": "float32"
        },
        {
          "name": "batch_normalization_3/moving_mean",
          "shape": [
            128
          ],
          "dtype": "float32"
        },
        {
          "name": "batch_normalization_3/moving_variance",
          "shape": [
            128
          ],
          "dtype": "float32"
        },
        {
          "name": "batch_normalization_4/gamma",
          "shape": [
            256
          ],
          "dtype": "float32"
        },
        {
          "name": "batch_normalization_4/beta",
          "shape": [
            256
          ],
          "dtype": "float32"
        },
        {
          "name": "batch_normalization_4/moving_mean",
          "shape": [
            256
          ],
          "dtype": "float32"
        },
        {
          "name": "batch_normalization_4/moving_variance",
          "shape": [
            256
          ],
          "dtype": "float32"
        },
        {
          "name": "batch_normalization_5/gamma",
          "shape": [
            256
          ],
          "dtype": "float32"
        },
        {
          "name": "batch_normalization_5/beta",
          "shape": [
            256
          ],
          "dtype": "float32"
        },
        {
          "name": "batch_normalization_5/moving_mean",
          "shape": [
            256
          ],
          "dtype": "float32"
        },
        {
          "name": "batch_normalization_5/moving_variance",
          "shape": [
            256
          ],
          "dtype": "float32"
        },
        {
          "name": "batch_normalization_6/gamma",
          "shape": [
            512
          ],
          "dtype": "float32"
        },
        {
          "name": "batch_normalization_6/beta",
          "shape": [
            512
          ],
          "dtype": "float32"
        },
        {
          "name": "batch_normalization_6/moving_mean",
          "shape": [
            512
          ],
          "dtype": "float32"
        },
        {
          "name": "batch_normalization_6/moving_variance",
          "shape": [
            512
          ],
          "dtype": "float32"
        },
        {
          "name": "batch_normalization_7/gamma",
          "shape": [
            512
          ],
          "dtype": "float32"
        },
        {
          "name": "batch_normalization_7/beta",
          "shape": [
            512
          ],
          "dtype": "float32"
        },
        {
          "name": "batch_normalization_7/moving_mean",
          "shape": [
            512
          ],
          "dtype": "float32"
        },
        {
          "name": "batch_normalization_7/moving_variance",
          "shape": [
            512
          ],
          "dtype": "float32"
        },
        {
          "name": "conv1d_0/kernel",
          "shape": [
            7,
            1,
            64
          ],
          "dtype": "float32"
        },
        {
          "name": "conv1d_0/bias",
          "shape": [
            64
          ],
          "dtype": "float32"
        },
        {
          "name": "conv1d_1/kernel",
          "shape": [
            7,
            64,
            64
          ],
          "dtype": "float32"
        },
        {
          "name": "conv1d_1/bias",
          "shape": [
            64
          ],
          "dtype": "float32"
        },
        {
          "name": "conv1d_2/kernel",
          "shape": [
            7,
            64,
            128
          ],
          "dtype": "float32"
        },
        {
          "name": "conv1d_2/bias",
          "shape": [
            128
          ],
          "dtype": "float32"
        },
        {
          "name": "conv1d_3/kernel",
          "shape": [
            7,
            128,
            128
          ],
          "dtype": "float32"
        },
        {
          "name": "conv1d_3/bias",
          "shape": [
            128
          ],
          "dtype": "float32"
        },
        {
          "name": "conv1d_4/kernel",
          "shape": [
            7,
            128,
            256
          ],
          "dtype": "float32"
        },
        {
          "name": "conv1d_4/bias",
          "shape": [
            256
          ],
          "dtype": "float32"
        },
        {
          "name": "conv1d_5/kernel",
          "shape": [
            7,
            256,
            256
          ],
          "dtype": "float32"
        },
        {
          "name": "conv1d_5/bias",
          "shape": [
            256
          ],
          "dtype": "float32"
        },
        {
          "name": "conv1d_6/kernel",
          "shape": [
            7,
            256,
            512
          ],
          "dtype": "float32"
        },
        {
          "name": "conv1d_6/bias",
          "shape": [
            512
          ],
          "dtype": "float32"
        },
        {
          "name": "conv1d_7/kernel",
          "shape": [
            7,
            512,
            512
          ],
          "dtype": "float32"
        },
        {
          "name": "conv1d_7/bias",
          "shape": [
            512
          ],
          "dtype": "float32"
        },
        {
          "name": "conv1d_res_0/kernel",
          "shape": [
            1,
            1,
            64
          ],
          "dtype": "float32"
        },
        {
          "name": "conv1d_res_0/bias",
          "shape": [
            64
          ],
          "dtype": "float32"
        },
        {
          "name": "conv1d_res_1/kernel",
          "shape": [
            1,
            64,
            128
          ],
          "dtype": "float32"
        },
        {
          "name": "conv1d_res_1/bias",
          "shape": [
            128
          ],
          "dtype": "float32"
        },
        {
          "name": "conv1d_res_2/kernel",
          "shape": [
            1,
            128,
            256
          ],
          "dtype": "float32"
        },
        {
          "name": "conv1d_res_2/bias",
          "shape": [
            256
          ],
          "dtype": "float32"
        },
        {
          "name": "conv1d_res_3/kernel",
          "shape": [
            1,
            256,
            512
          ],
          "dtype": "float32"
        },
        {
          "name": "conv1d_res_3/bias",
          "shape": [
            512
          ],
          "dtype": "float32"
        },
        {
          "name": "dense_features_1/kernel",
          "shape": [
            20,
            128
          ],
          "dtype": "float32"
        },
        {
          "name": "dense_features_1/bias",
          "shape": [
            128
          ],
          "dtype": "float32"
        },
        {
          "name": "dense_fused_1/kernel",
          "shape": [
            640,
            512
          ],
          "dtype": "float32"
        },
        {
          "name": "dense_fused_1/bias",
          "shape": [
            512
          ],
          "dtype": "float32"
        },
        {
          "name": "dense_fused_2/kernel",
          "shape": [
            512,
            256
          ],
          "dtype": "float32"
        },
        {
          "name": "dense_fused_2/bias",
          "shape": [
            256
          ],
          "dtype": "float32"
        },
        {
          "name": "dense_se_1_0/kernel",
          "shape": [
            64,
            4
          ],
          "dtype": "float32"
        },
        {
          "name": "dense_se_1_0/bias",
          "shape": [
            4
          ],
          "dtype": "float32"
        },
        {
          "name": "dense_se_1_1/kernel",
          "shape": [
            128,
            8
          ],
          "dtype": "float32"
        },
        {
          "name": "dense_se_1_1/bias",
          "shape": [
            8
          ],
          "dtype": "float32"
        },
        {
          "name": "dense_se_1_2/kernel",
          "shape": [
            256,
            16
          ],
          "dtype": "float32"
        },
        {
          "name": "dense_se_1_2/bias",
          "shape": [
            16
          ],
          "dtype": "float32"
        },
        {
          "name": "dense_se_1_3/kernel",
          "shape": [
            512,
            32
          ],
          "dtype": "float32"
        },
        {
          "name": "dense_se_1_3/bias",
          "shape": [
            32
          ],
          "dtype": "float32"
        },
        {
          "name": "dense_se_2_0/kernel",
          "shape": [
            4,
            64
          ],
          "dtype": "float32"
        },
        {
          "name": "dense_se_2_0/bias",
          "shape": [
            64
          ],
          "dtype": "float32"
        },
        {
          "name": "dense_se_2_1/kernel",
          "shape": [
            8,
            128
          ],
          "dtype": "float32"
        },
        {
          "name": "dense_se_2_1/bias",
          "shape": [
            128
          ],
          "dtype": "float32"
        },
        {
          "name": "dense_se_2_2/kernel",
          "shape": [
            16,
            256
          ],
          "dtype": "float32"
        },
        {
          "name": "dense_se_2_2/bias",
          "shape": [
            256
          ],
          "dtype": "float32"
        },
        {
          "name": "dense_se_2_3/kernel",
          "shape": [
            32,
            512
          ],
          "dtype": "float32"
        },
        {
          "name": "dense_se_2_3/bias",
          "shape": [
            512
          ],
          "dtype": "float32"
        },
        {
          "name": "raw_embeddings/kernel",
          "shape": [
            256,
            256
          ],
          "dtype": "float32"
        },
        {
          "name": "raw_embeddings/bias",
          "shape": [
            256
          ],
          "dtype": "float32"
        }
      ]
    }
  ]
}